tests/data/npy/model.22.cv2.2.2.weight.npy (npy, 16512 bytes, 1 tensors)

array f4 [64, 64, 1, 1]
0.010765076 -0.002702713 0.0077056885 0.00091314316 -0.0011377335 0.00044846535 0.23474121 0.0070877075
0.003604889 -0.2166748 0.0036716461 0.010375977 0.0068244934 0.006916046 0.0009484291 0.0030574799
0.0055389404 0.00459671 0.2878418 0.0082092285 0.009407043 0.003578186 0.0051231384 0.0063552856
0.0020160675 -0.002609253 0.0064888 0.065979004 0.007949829 -0.03982544 -0.00011104345 0.006793976
-0.0033607483 -0.00043272972 -0.114746094 0.00057697296 0.007209778 0.002281189 0.3005371 0.01020813
0.0053215027 0.06982422 -0.15820312 -0.12670898 0.0001128912 -0.0014533997 0.00052022934 0.005508423
0.002632141 -0.11425781 -0.2097168 0.018112183 -0.06695557 0.0031433105 0.004825592 -0.14294434
-0.003030777 0.003944397 0.012329102 -0.086120605 0.005470276 0.0005455017 -0.13513184 6.5505505e-05
0.011482239 -0.0022010803 0.007965088 0.00095272064 -0.0011253357 0.00047826767 0.24414062 0.0072021484
0.0039482117 0.23828125 0.0036621094 0.010032654 0.0069885254 0.007221222 0.00083351135 0.0031795502
0.00617218 0.0043144226 0.2836914 0.008392334 0.009384155 0.0033435822 0.005016327 0.006099701
0.0020942688 -0.001405716 0.006462097 -0.17468262 0.007858276 -0.059631348 0.00027132034 0.0076446533
-0.0037078857 -0.00068187714 -0.09613037 0.0007214546 0.0075149536 0.0024032593 0.2902832 0.0099487305
0.0054779053 0.093688965 0.1328125 -0.12402344 0.00063943863 -0.0016784668 0.0006284714 0.006099701
0.0028018951 -0.08496094 -0.17810059 -0.17749023 -0.07305908 0.0010919571 0.004737854 0.09234619
-0.003704071 0.0041618347 0.012283325 0.13928223 0.006061554 0.00065135956 -0.13378906 0.00019478798
0.011528015 -0.0026283264 0.008285522 0.0009689331 -0.0014982224 0.0007119179 0.2578125 0.007499695
0.0042495728 0.23571777 0.003358841 0.009567261 0.00699234 0.00737381 0.0008587837 0.0032672882
0.006454468 0.004470825 -0.2536621 0.008712769 0.009429932 0.0025634766 0.004989624 0.0057907104
0.0019721985 -0.0015363693 0.005958557 0.10827637 0.007987976 -0.020202637 0.00020873547 0.0075416565
-0.0035972595 -0.00069093704 0.26098633 -0.00019156933 0.007659912 0.0024223328 0.2722168 0.010307312
0.0055770874 0.07495117 0.16870117 -0.12432861 -2.425909e-05 -0.0016756058 0.0008535385 0.00630188
0.0022945404 -0.08886719 -0.13061523 0.027145386 -0.05670166 0.0009250641 0.004386902 0.107421875
-0.00434494 0.004573822 0.012283325 -0.0904541 0.0064086914 0.00087213516 -0.12561035 0.00018370152
0.010444641 -0.0034294128 0.0090789795 0.0010108948 -0.00071287155 0.0010604858 0.22949219 0.007659912
0.0048179626 0.25341797 0.0040283203 0.009529114 0.007171631 0.008155823 0.0012226105 0.0032749176
0.0070343018 0.0042800903 0.00027608871 0.008834839 0.009483337 0.0018663406 0.0048980713 0.0061302185
0.0013580322 -0.0021133423 0.0056381226 0.045135498 0.008399963 -0.11077881 0.00031232834 0.0055389404
-0.0023155212 -0.0005760193 0.3161621 -0.0004851818 0.00831604 0.0028877258 -0.23376465 0.009490967
0.005584717 0.17456055 0.013175964 -0.11956787 0.0008878708 -0.0014209747 0.0009098053 0.0063591003
0.0023269653 -0.07824707 0.17834473 0.016403198 0.0115356445 0.002040863 0.0028572083 -0.13000488
-0.0033168793 0.0051498413 0.012138367 0.099243164 0.0068244934 0.0011806488 -0.14025879 0.00090408325
00000000: 0060 303c 0020 31bb 0080 fc3b 0060 6f3a
00000010: 0020 95ba 0020 eb39 0060 703e 0040 e83b
00000020: 0040 6c3b 00e0 5dbe 00a0 703b 0000 2a3c
00000030: 00a0 df3b 00a0 e23b 00a0 783a 0060 483b
00000040: 0080 b53b 00a0 963b 0060 933e 0080 063c
00000050: 0020 1a3c 0080 6a3b 00e0 a73b 0040 d03b
00000060: 0020 043b 0000 2bbb 00a0 d43b 0020 873d
00000070: 0040 023c 0020 23bd 00e0 e8b8 00a0 de3b
00000080: 0040 5cbb 00e0 e2b9 0000 ebbd 0040 173a
00000090: 0040 ec3b 0080 153b 00e0 993e 0040 273c
000000a0: 0060 ae3b 0000 8f3d 0000 22be 00c0 01be
000000b0: 00c0 ec38 0080 beba 0060 083a 0080 b43b
000000c0: 0080 2c3b 0000 eabd 00c0 56be 0060 943c
000000d0: 0020 89bd 0000 4e3b 0020 9e3b 0060 12be
000000e0: 00a0 46bb 0040 813b 0000 4a3c 0060 b0bd
000000f0: 0040 b33b 0000 0f3a 0060 0abe 0060 8938
00000100: 0020 3c3c 0040 10bb 0080 023c 00c0 793a
00000110: 0080 93ba 00c0 fa39 0000 7a3e 0000 ec3b
00000120: 0060 813b 0000 743e 0000 703b 0060 243c
00000130: 0000 e53b 00a0 ec3b 0080 5a3a 0060 503b
00000140: 0040 ca3b 0060 8d3b 0040 913e 0080 093c
00000150: 00c0 193c 0020 5b3b 0060 a43b 00e0 c73b
00000160: 0040 093b 0040 b8ba 00c0 d33b 00e0 32be
00000170: 00c0 003c 0040 74bd 0040 8e39 0080 fa3b
00000180: 0000 73bb 00c0 32ba 00e0 c4bd 0020 3d3a
00000190: 0040 f63b 0080 1d3b 00a0 943e 0000 233c
000001a0: 0080 b33b 00e0 bf3d 0000 083e 0000 febd
000001b0: 00a0 273a 0000 dcba 00c0 243a 00e0 c73b
000001c0: 00a0 373b 0000 aebd 0060 36be 00c0 35be
000001d0: 00a0 95bd 0020 8f3a 0040 9b3b 0020 bd3d
000001e0: 00c0 72bb 0060 883b 0040 493c 00a0 0e3e
000001f0: 00a0 c63b 00c0 2a3a 0000 09be 0040 4c39
00000200: 00e0 3c3c 0040 2cbb 00c0 073c 0000 7e3a
00000210: 0060 c4ba 00a0 3a3a 0000 843e 00c0 f53b
00000220: 0040 8b3b 0060 713e 0020 5c3b 00c0 1c3c
00000230: 0020 e53b 00a0 f13b 0020 613a 0020 563b
00000240: 0080 d33b 0080 923b 00e0 81be 00c0 0e3c
00000250: 0080 1a3c 0000 283b 0080 a33b 00c0 bd3b
00000260: 0040 013b 0060 c9ba 0040 c33b 00c0 dd3d
00000270: 00e0 023c 0080 a5bc 00e0 5a39 0020 f73b
00000280: 00c0 6bbb 0020 35ba 00a0 853e 00e0 48b9
00000290: 0000 fb3b 00c0 1e3b 0060 8b3e 00e0 283c
000002a0: 00c0 b63b 0080 993d 00c0 2c3e 00a0 febd
000002b0: 0080 cbb7 00a0 dbba 00c0 5f3a 0080 ce3b
000002c0: 0060 163b 0000 b6bd 00c0 05be 0060 de3c
000002d0: 0040 68bd 0080 723a 00c0 8f3b 0000 dc3d
000002e0: 0060 8ebb 00e0 953b 0040 493c 0040 b9bd
000002f0: 0000 d23b 00a0 643a 00a0 00be 00a0 4039
00000300: 0020 2b3c 00c0 60bb 00c0 143c 0080 843a
00000310: 00e0 3aba 0000 8b3a 0000 6b3e 0000 fb3b
00000320: 00e0 9d3b 00c0 813e 0000 843b 0020 1c3c
00000330: 0000 eb3b 00a0 053c 0040 a03a 00a0 563b
00000340: 0080 e63b 0040 8c3b 00c0 9039 00c0 103c
00000350: 0060 1b3c 00a0 f43a 0080 a03b 00e0 c83b
00000360: 0000 b23a 0080 0abb 00c0 b83b 00e0 383d
00000370: 00a0 093c 00e0 e2bd 00c0 a339 0080 b53b
00000380: 00c0 17bb 0000 17ba 00e0 a13e 0060 feb9
00000390: 0040 083c 0040 3d3b 0060 6fbe 0080 1b3c
000003a0: 0000 b73b 00c0 323e 00e0 573c 00e0 f4bd
000003b0: 00c0 683a 0040 baba 0080 6e3a 0060 d03b
000003c0: 0080 183b 0040 a0bd 00a0 363e 0060 863c
000003d0: 0000 3d3c 00c0 053b 0040 3b3b 0020 05be
000003e0: 0060 59bb 00c0 a83b 00e0 463c 0040 cb3d
000003f0: 00a0 df3b 00c0 9a3a 00a0 0fbe 0000 6d3a
