tests/data/npy/model.4.m.0.cv2.conv.weight.npy (npy, 36992 bytes, 1 tensors)

array f4 [32, 32, 3, 3]
0	0x3da3ad8c	0.07992086
1	0x3cff31fa	0.03115176
2	0x3ce2df30	0.027694315
3	0xbd9dfc1a	-0.077141
4	0x3cada413	0.0211964
5	0x3d6df934	0.058098987
6	0x3b5e085c	0.0033879494
7	0xbabeb869	-0.0014550808
8	0xbd8b6930	-0.06807172
9	0x3d2ea321	0.04263604
10	0xbca0d4d3	-0.019632732
11	0x3d7fe828	0.06247726
12	0x3ce24d71	0.027624818
13	0xbd77826d	-0.060427118
14	0x3d834c54	0.06411043
15	0x3d8810f0	0.066438556
16	0x3e0d0c34	0.13774186
17	0x3d897d4c	0.067133516
18	0x3e0b0e19	0.13579597
19	0x3e90ad53	0.28257236
20	0x3b1a91a2	0.002358534
21	0x3de2bac0	0.11070776
22	0x3de9d88e	0.11418258
23	0x3d8ae9a9	0.067828484
24	0xbd830374	-0.06397143
25	0xbe8c8cad	-0.27451077
26	0xbdaaefca	-0.083465174
27	0xbe2e1162	-0.16998819
28	0x3d9373d4	0.07199827
29	0xbcb5e55f	-0.0222041
30	0x3e0d5513	0.13801984
31	0x3e3d279d	0.18472143
32	0xbbcc86b7	-0.006241645
33	0x3da3d1fb	0.07999035
34	0xbde600c8	-0.11230618
35	0xbddd9b0d	-0.10820589
36	0x3d4c1968	0.049828917
37	0x3d834c54	0.06411043
38	0x3d843929	0.06456215
39	0xbd22412f	-0.039612945
40	0xbdbdddcb	-0.09270819
41	0xb8ef1cb1	-0.00011401752
42	0xbbb8e287	-0.0056422385
43	0xbdbe4b1a	-0.09291668
44	0xbd4ad17b	-0.049516182
45	0x3d89346d	0.066994525
46	0x3e3e26aa	0.18569437
47	0x3c83a76b	0.016071042
48	0xbc676d24	-0.014125142
49	0x3e9bd98f	0.30439422
50	0x3d112cd9	0.03544316
51	0xbd5955f7	-0.053060498
52	0xbd620492	-0.05518014
53	0xbe7937a8	-0.24337637
54	0xbd2bca68	-0.041941077
55	0x3e5e9a1a	0.21738473
56	0xbdea8ebd	-0.114530064
57	0xbd476703	-0.048682224
58	0xbf144e72	-0.579322
59	0xbbbc288f	-0.0057421396
60	0xbc85934e	-0.016305592
61	0xbe4024c5	-0.18764026
62	0x3d7f31fa	0.06230352
63	0xbc192546	-0.009347266
64	0x3d8ad771	0.067793734
65	0xbdf8eec9	-0.1215492
66	0xbdfec4ab	-0.12439855
67	0xbce69286	-0.02814604
68	0xbdfec4ab	-0.12439855
69	0x3cdc2eb0	0.026877731
70	0xbe95df3e	-0.29271883
71	0xbdd57e31	-0.1042446
72	0xbc81cdbf	-0.015845178
73	0x3c21af71	0.009868489
74	0xbcad1254	-0.021126904
75	0xbe8a6a22	-0.27034098
76	0xbed3a485	-0.41336456
77	0x3deafc0c	0.114738554
78	0xbdc8f7d0	-0.098128915
79	0x3e2cc975	0.16873725
80	0x3d68fdf0	0.0568828
81	0x3d6e6683	0.05820323
82	0x3dcdf313	0.10056128
83	0xbe89d864	-0.26922905
84	0xbdc36acd	-0.09541855
85	0xbcb57810	-0.022151977
86	0xbecc86b7	-0.3994653
87	0xbc283b80	-0.010268092
88	0xbd5fbd97	-0.054624166
89	0x3f23891c	0.6388109
90	0x3da618f6	0.0811023
91	0x3e3cdebd	0.18444343
92	0xbd5559c1	-0.05208755
93	0x3d23d1fb	0.039995175
94	0xbe3033ed	-0.17207308
95	0xbe7361c7	-0.23767768
96	0x3dac8096	0.08422963
97	0xbc29a7dd	-0.010354963
98	0x3d1472e1	0.03624237
99	0xbc875ac2	-0.016522769
100	0x3d1ed6b8	0.03877899
101	0xbd69fcfe	-0.057126038
102	0xbd9c8fbd	-0.076446034
103	0x3e77151e	0.2412915
104	0x3da18b01	0.07887841
105	0xbda6cf24	-0.08144978
106	0xbdc2902f	-0.09500157
107	0x3d13e123	0.03610338
108	0x3d9eb248	0.07748848
109	0xbc025f7e	-0.007957337
110	0xbd208bf3	-0.039195966
111	0xbc6e8af3	-0.014559495
112	0xbda78552	-0.08179726
113	0xbd505e7d	-0.05087136
114	0xbd679194	-0.05653532
115	0x3d5b9cf2	0.05361647
116	0xbe25aba7	-0.16178761
117	0xbd85934e	-0.06522237
118	0x3dfdc59d	0.12391207
119	0xbdfe32ec	-0.12412056
120	0xbc53c8f5	-0.01292633
121	0xbd08c71e	-0.033393018
122	0x3d0e0b41	0.0346787
123	0xbae9b41f	-0.001783017
124	0xbdd28108	-0.10278517
125	0xbd45faa7	-0.048334744
126	0x3d204314	0.03912647
127	0xbdff31fa	-0.12460704
128	0x3d93bcb3	0.07213726
129	0x3d8f532e	0.06998287
130	0xbea0f942	-0.3144017
131	0xbd1b47d0	-0.037910283
132	0x3e1949b5	0.14969523
133	0xbeb0a13c	-0.34498012
134	0x3df53b72	0.11974229
135	0xbd19b704	-0.037528053
136	0x3dc3fc8c	0.09569654
137	0x3d2aefca	0.041732587
138	0x3dd6c61d	0.10487006
139	0x3eb40bb3	0.35165176
140	0x3aadecf2	0.0013269468
141	0xbb69fcfe	-0.0035703774
142	0x3ec0ff63	0.37694845
143	0x3c04a678	0.00809633
144	0xbcb2c3c6	-0.021821868
145	0xbc10d1c2	-0.008839073
146	0x3d986f17	0.07443064
147	0x3d949751	0.07255424
148	0x3d9472e1	0.07248474
149	0x3d42d90f	0.047570284
150	0xbcaea321	-0.02131802
151	0xbd23f66b	-0.040029924
152	0x3d5f74b8	0.05455467
153	0xbbd4c802	-0.0064935694
154	0x3c5114ac	0.012761276
155	0xbdd6345f	-0.10459208
156	0xbd940592	-0.07227625
157	0xbe144e72	-0.1448305
158	0x3c20d4d3	0.009816366
159	0x3cf8389b	0.03030043
160	0x3d3f0148	0.04663208
161	0x3ce4946b	0.027902802
162	0xbd28a8cf	-0.041176613
163	0xbe93e123	-0.28882703
164	0x3c5559c1	0.013021887
165	0x3da618f6	0.0811023
166	0x3e16b9dc	0.14719337
167	0x3d31c4b9	0.0434005
168	0x3d392b67	0.045207407
169	0x3e12bda6	0.14330158
170	0xbd3a4ee4	-0.045485392
171	0xbca08bf3	-0.019597983
172	0xbab5e55f	-0.0013877562
173	0x3d4f83df	0.05066287
174	0xbd80aa42	-0.06282474
175	0xbd70ad7e	-0.058759205
176	0xbd1d45ec	-0.03839676
177	0x3e3c288f	0.18374847
178	0xbd426bc0	-0.04746604
179	0xbc62bac0	-0.01383847
180	0x3d05018f	0.03247219
181	0xbe46b0d5	-0.19403394
182	0x3d132af4	0.035929635
183	0xbdc2902f	-0.09500157
184	0xbe0b7b67	-0.13621293
185	0xbe0e6658	-0.13906229
186	0xbcc6d545	-0.024271617
187	0x3d40b684	0.04704906
188	0x3d99ffe4	0.075195104
189	0x3d323208	0.043504745
190	0x3e001884	0.12509352
191	0xbd83a76b	-0.06428417
192	0x3c86db3b	0.01646196
193	0x3d7fc3b8	0.06244251
194	0x3d87c811	0.066299565
195	0xbcf5a8c1	-0.029987695
196	0xbe1fb156	-0.15594992
197	0xbc9670fc	-0.018364422
198	0x3d4a889c	0.049446687
199	0x3e12e215	0.14344056
200	0x3d8a2143	0.067446254
201	0xbe184aa8	-0.14872229
202	0x3d0d5513	0.03450496
203	0xbda562c7	-0.08075481
204	0x3d8d42db	0.06897517
205	0xbdde9a1a	-0.10869236
206	0x3d424750	0.04743129
207	0x3d99b704	0.075056106
208	0x3e1a91a2	0.15094617
209	0x3dc4d72a	0.09611352
210	0xbcc2fd7e	-0.023802515
211	0x3eb7762b	0.35832343
212	0x3e2d1254	0.16901523
213	0x3ce600c8	0.028076544
214	0xbd65dc58	-0.05611834
215	0xbe5dbf7c	-0.21655077
216	0xbdcaf5eb	-0.099101864
217	0xbecd6155	-0.4011332
218	0xbc0ad771	-0.008474217
219	0xbda0f942	-0.07860042
220	0x3e09346d	0.13398905
221	0x3cba97c3	0.022777444
222	0x3e1afef1	0.15136315
223	0xbce649a7	-0.028111292
224	0x3db6e46c	0.08930287
225	0xbcb27ae7	-0.02178712
226	0xbc6cb147	-0.014446563
227	0xbc1bb51f	-0.009503632
228	0x3d8f2ebe	0.06991337
229	0xbb912cd9	-0.004430395
230	0x3c1eb248	0.00968606
231	0x3ccaad0b	0.024740716
232	0x3cd80e0a	0.026373882
233	0x39f55fe2	0.0004680148
234	0x3bbdddcb	0.005794262
235	0x3d4fccbf	0.05073237
236	0xbda8a8cf	-0.08235323
237	0x3c352f30	0.011058614
238	0x3e3ae0a2	0.18249753
239	0xbcbabc33	-0.022794819
240	0xbd79edd7	-0.061017837
241	0x3eb0c5ab	0.3452581
242	0x3d8711e2	0.06595208
243	0xbc6e4213	-0.0145421205
244	0xbdaf7dbf	-0.08568906
245	0xbcb52f30	-0.022117227
246	0x3d0b44c0	0.034001112
247	0xbd182638	-0.037145823
248	0xbc6e1da4	-0.014533434
249	0x3d0d674b	0.034522336
250	0xbd3998b6	-0.045311652
251	0x3d8d42db	0.06897517
252	0x3cd4a393	0.025956905
253	0xbe3f0148	-0.18652833
254	0x3d97272b	0.073805176
255	0xbc3eb869	-0.0116406465
