tests/data/npy/model.22.cv3.2.0.conv.weight.npy (npy, 737408 bytes, 1 tensors)

array f4 [80, 256, 3, 3]
0	0x3c2c2eab	0.010509173
1	0x3c921094	0.01783017
2	0x3beb2a54	0.0071766768
3	0xbadd686f	-0.0016892086
4	0xbb9e5143	-0.0048314645
5	0xbb9b4ed9	-0.004739624
6	0xbcfc93b8	-0.030832157
7	0xbaef76eb	-0.0018269693
8	0xbce2ff34	-0.027709581
9	0x3b8dc3fd	0.004326342
10	0xbc200980	-0.00976789
11	0x3c33b4b4	0.010968376
12	0xbcd40ea6	-0.025885891
13	0xbcec0672	-0.028811667
14	0xbc450295	-0.012024541
15	0xba8ed723	-0.0010897856
16	0xbc8fb341	-0.01754153
17	0x3c8485b7	0.016177041
18	0xbc23b100	-0.009990931
19	0x3c297ecd	0.010345173
20	0x3b79c856	0.0038113794
21	0xb89c7d83	-7.462038e-05
22	0xbd190d0a	-0.03736595
23	0xbcc09a7a	-0.02351116
24	0x3b3a2797	0.0028404945
25	0x3a5989e7	0.0008298442
26	0xbc27ab0c	-0.010233652
27	0xbb832006	-0.00400162
28	0xbce74bcb	-0.028234383
29	0xbcdb26a0	-0.026751816
30	0xbd137645	-0.036001462
31	0xbd50d535	-0.05098458
32	0xbd38f8ed	-0.04515927
33	0xbd07f631	-0.03319377
34	0xbd8bd4b9	-0.06827683
35	0xbc79ff5d	-0.015258637
36	0xbd1fedfc	-0.03904532
37	0xbcaac8fa	-0.020847786
38	0xbd1f6469	-0.038914118
39	0x3ca09313	0.01960138
40	0x3cd71110	0.026253253
41	0x3bbeab36	0.00581875
42	0x3cab8994	0.020939626
43	0x3c92631f	0.01786953
44	0x3c8ccc5b	0.017187288
45	0x3b2dafe0	0.0026502535
46	0x3c0aa60f	0.008462443
47	0xbc6df5b6	-0.014523914
48	0xbc3f8754	-0.01168998
49	0xbae85ef1	-0.001772849
50	0xbb927ea3	-0.0044706627
51	0x3c3b5640	0.011434138
52	0x3c768ee4	0.015048716
53	0x3cae026b	0.021241387
54	0x3d001d9c	0.031278238
55	0x3aa00980	0.0012209862
56	0x3d01d5d9	0.03169808
57	0x3b83c51d	0.0040213005
58	0xbcb3ebbb	-0.021962991
59	0xbc102150	-0.008797005
60	0x3c895be2	0.016767446
61	0xbd04bcbf	-0.032406565
62	0x3a64b771	0.00087248447
63	0x3d6827ea	0.05667869
64	0x3d6b2a54	0.057413414
65	0x3d3b3abd	0.045710314
66	0x3d5fc5c3	0.05463196
67	0x3d4f1cf8	0.050564736
68	0x3d84d843	0.06486561
69	0x3d5cfa60	0.053949714
70	0x3d927ea3	0.0715306
71	0x3d838e15	0.06423584
72	0xbd189efb	-0.03726099
73	0xbe19288e	-0.14956877
74	0xbdab0002	-0.08349611
75	0x3d00de37	0.03146192
76	0xbd1bf3f0	-0.038074434
77	0x3c8e6913	0.017384088
78	0x3d057d5a	0.032590248
79	0xbc8bf03c	-0.017082326
80	0x3d2c8136	0.042115413
81	0xbd0485b7	-0.032354083
82	0xbcc2f7cd	-0.023799801
83	0xbc565076	-0.013080707
84	0xbccb7578	-0.024836287
85	0xbb3f1945	-0.002915935
86	0xbd0c5e4c	-0.034269616
87	0xbc9c2af8	-0.019063458
88	0xbc189efb	-0.009315248
89	0xbcd58fdb	-0.026069572
90	0xbcf9c856	-0.030491035
91	0xbd6fadf2	-0.058515497
92	0xbd285023	-0.04109205
93	0x3cf3c382	0.029756311
94	0x3c6e2cbd	0.014537034
95	0x3cefe4fa	0.02928399
96	0x3cc796f0	0.024363965
97	0xbbec0672	-0.007202917
98	0x3d474464	0.048649207
99	0xbd852ace	-0.06502305
100	0xbd5e0d86	-0.054212116
101	0xbd8bb935	-0.06822435
102	0xbd477b6c	-0.04870169
103	0xbcddd67f	-0.027079819
104	0xbd2d41d1	-0.042299096
105	0xbd6d87a7	-0.057990696
106	0xbc889b47	-0.016675605
107	0xbd5cfa60	-0.053949714
108	0x3bc1e4a7	0.00591715
109	0x3c5127c0	0.012765825
110	0x3bb3b4b4	0.005484188
111	0x3ca35e75	0.019942502
112	0x3b6782d3	0.003532578
113	0x3cc45d7e	0.023970362
114	0x3cf76b03	0.030202394
115	0x3bf31e6b	0.0074193976
116	0x3c814c46	0.01578344
117	0xbc339930	-0.010961816
118	0x3ca29ddb	0.019850662
119	0x3cca6252	0.024705086
120	0x3c0e8497	0.008698604
121	0xbc209313	-0.00980069
122	0x3c0d7171	0.008633004
123	0x3bc26e3a	0.00593355
124	0xbca13829	-0.0196801
125	0x3c5b94af	0.013402148
126	0xbba24b4f	-0.004952825
127	0xbcea172e	-0.028575506
128	0xba5ffcca	-0.00085444434
129	0xbce52580	-0.027971983
130	0xbd0ef2a6	-0.034899376
131	0xbcd77f1f	-0.026305733
132	0x3c3bc450	0.011460379
133	0xbcd8e4d1	-0.026476296
134	0x3ba35e75	0.0049856254
135	0xba6f3fe3	-0.00091266463
136	0x3bc13f90	0.00589747
137	0xbbf38c7b	-0.007432518
138	0xbb014c46	-0.00197293
139	0x3c837292	0.016045842
140	0x3c81d5d9	0.01584904
141	0x3b24a8a2	0.0025124927
142	0xbb997b19	-0.004683864
143	0x3c5a137a	0.013310308
144	0x3bdffcca	0.0068355547
145	0x3c53f323	0.012936386
146	0x39854652	0.0002542013
147	0x3c8af89a	0.016964246
148	0x3af1662f	0.0018417294
149	0xbbb13bdd	-0.0054087476
150	0x3c03fc25	0.008055721
151	0xbc2a766f	-0.010404213
152	0x3ceb2a54	0.028706707
153	0xbd399e04	-0.04531671
154	0xbc749fa0	-0.014930636
155	0xbd1dc7b0	-0.038520515
156	0x3c7e4bf5	0.015521039
157	0x3d21dd40	0.03951764
158	0x3cdab891	0.026699336
159	0x3c8f0e2a	0.017462809
160	0x3c6a172e	0.014287753
161	0x39719d36	0.00023042117
162	0x3c8da879	0.017292248
163	0x3ba18ab5	0.0049298652
164	0xbc65938f	-0.0140122315
165	0x3d13e454	0.036106423
166	0xbd438160	-0.047730803
167	0xbd0b822d	-0.034059692
168	0x3cf19d36	0.02949391
169	0x3c392ff5	0.011302938
170	0xbbecab88	-0.0072225966
171	0x3cf46899	0.029835032
172	0xbc995f95	-0.018722335
173	0x3cf57bbf	0.029966233
174	0xbba6ea72	-0.005093866
175	0xbd6e9acd	-0.0582531
176	0xbca8a2ae	-0.020585384
177	0x3c93ad4d	0.018026972
178	0xbc103cd4	-0.008803565
179	0x3ce3db52	0.027814541
180	0xbd464cc2	-0.048413046
181	0xbd1323ba	-0.035922743
182	0xbd589245	-0.05287387
183	0xbb8ebb9f	-0.0043558623
184	0xbba45617	-0.0050151455
185	0xbc2bdc20	-0.010489494
186	0x3d6abc44	0.05730845
187	0x3d64ee78	0.055891484
188	0x3d3fa2d8	0.04678616
189	0x3d521f62	0.05129946
190	0x3ce10ff0	0.02747342
191	0x3ccb22ec	0.024796925
192	0x3cf2b05c	0.02962511
193	0xbbaea782	-0.005330027
194	0x3a4fdd93	0.00079294405
195	0x3d439ce4	0.047757044
196	0x3cb9d50b	0.022684595
197	0x3d21c1bc	0.0394914
198	0xbd20ca1a	-0.03925524
199	0xbcaea782	-0.021320108
200	0xbd2a91f2	-0.04164309
201	0x3c86907f	0.016426323
202	0x3d23b100	0.039963722
203	0xba803920	-0.000978265
204	0x3d1ceb92	0.038310595
205	0x3daa3f67	0.08312874
206	0x3d30cdce	0.04316502
207	0x3d5cfa60	0.053949714
208	0x3ce6ddbc	0.028181903
209	0x3d8bf03c	0.068329304
210	0x3db0443b	0.08606764
211	0x3d0ac193	0.033876013
212	0x3db0b24a	0.08627756
213	0x3de3363c	0.11094329
214	0x3db9d50b	0.09073838
215	0x3dcf8b07	0.10133939
216	0xbe28191b	-0.16415827
217	0xbe4047ee	-0.18777439
218	0xbe31fc77	-0.17381464
219	0xbdf46899	-0.11934013
220	0xbd863df4	-0.06554785
221	0xbdf01c01	-0.11724091
222	0xbe170242	-0.14746955
223	0xbe07daad	-0.13267012
224	0xbe108f5f	-0.14117192
225	0x3c693b0f	0.014235272
226	0x3c8e1688	0.017344728
227	0x3cf6fcf4	0.030149914
228	0xbc4289be	-0.011873661
229	0xbc8dc3fd	-0.017305369
230	0xbb9e5143	-0.0048314645
231	0xbca99a50	-0.020703465
232	0xbcd38513	-0.02582029
233	0xbcaac8fa	-0.020847786
234	0x3d6d87a7	0.057990696
235	0x3d4c5196	0.049882494
236	0x3d8a00f8	0.06738466
237	0x3cea4e35	0.028601745
238	0x3c6dbeae	0.014510794
239	0x3d127ea3	0.0357653
240	0x3d1b3356	0.037890755
241	0x3cb88ade	0.022527155
242	0x3d0c0bc0	0.034190893
243	0xbd55fdea	-0.052244104
244	0xbd1830ec	-0.03715603
245	0xbbc441fa	-0.0059893103
246	0xbd127ea3	-0.0357653
247	0xbca77405	-0.020441065
248	0x3c5a137a	0.013310308
249	0xbca910bd	-0.020637864
250	0xbc95ef1c	-0.018302493
251	0xbb1fb6f4	-0.0024370523
252	0x3d4d64bc	0.050144896
253	0x3d339930	0.043847263
254	0x3d12d12f	0.035844024
255	0xbc32d896	-0.010915896
