tests/data/npy/model.12.cv1.conv.bias.npy (npy, 640 bytes, 1 tensors)

array f4 [128]
000000 fa 3e 19 c0 75 6a 96 bc 45 84 6a bf 7b 2f 5f c0
       -2.3944688 -0.01836131 -0.9160808 -3.487273
000010 ea 6a ab bf 94 e3 35 bf d4 a2 83 be d5 dd 05 3e
       -1.3392003 -0.7105038 -0.25710166 0.13072903
000020 54 42 2f bf 70 ed dd be a8 e8 cf bf 00 02 2e bf
       -0.68460584 -0.43345213 -1.6242876 -0.679718
000030 83 09 74 bf 8a bb d2 bf 1e 08 5f 3e 3c b0 16 3f
       -0.95327014 -1.6463482 0.2178044 0.5886266
000040 68 34 3c be 3b 7e b7 bf df 53 61 c0 92 6a ba bf
       -0.18379366 -1.4335397 -3.520744 -1.4563773
000050 09 e1 29 bf 80 16 f3 be b0 47 59 3d 54 3b 4e c0
       -0.66359 -0.47478104 0.053046882 -3.222371
000060 18 86 0b c0 89 be a9 bf ea bd 1a 3e 49 27 e5 bf
       -2.1800594 -1.3261272 0.15111509 -1.7902614
000070 45 c1 05 c0 d5 db 55 be ec 09 91 bf d9 fc 9a bf
       -2.0899212 -0.2088464 -1.1331153 -1.2108413
000080 c2 93 64 c0 cc c6 ab be 2b 28 28 c0 af b7 f4 bf
       -3.5715184 -0.33550107 -2.6274517 -1.9118556
000090 8f 22 33 bf 6a b8 46 3e a7 b5 2f c0 b0 2d 09 bd
       -0.6997461 0.19406286 -2.7454622 -0.033490837
0000a0 cb 53 bd bf da ac 42 c0 ec 5d 26 c0 23 f9 d9 bf
       -1.4791197 -3.0418 -2.5994825 -1.7029155
0000b0 88 98 da bf ab 8e af bf f1 34 c2 3e a2 7d 83 3e
       -1.7077799 -1.3715414 0.37931016 0.25681788
0000c0 90 bd ab bf ef a2 df bf ce eb 8d bf b5 fe 2e bf
       -1.3417225 -1.7471598 -1.1087587 -0.683574
0000d0 31 e4 23 bf cd fc 71 bf 30 67 17 bd 13 46 10 c0
       -0.6402007 -0.9452637 -0.03696364 -2.254277
0000e0 90 18 c6 bf e2 3c 86 be ea 9c 3d bf 5d 73 0a c0
       -1.5476246 -0.26218325 -0.74067557 -2.1632912
0000f0 42 39 02 c0 0a 7e ac 3f 28 4f 07 bf be c5 04 c0
       -2.0347447 1.3475964 -0.5285516 -2.0745692
000100 2c 85 b6 bf 46 f0 e1 bf 64 51 05 bf 94 99 f7 bf
       -1.4259391 -1.7651451 -0.5207732 -1.9343743
000110 03 55 fe bf ff 91 a7 bf 44 98 c3 3f 05 b0 11 c0
       -1.9869694 -1.309143 1.5280843 -2.2763684
000120 6e ce 90 be a0 16 d8 3f 60 7d ef bf b7 3b e0 bf
       -0.28282493 1.6881905 -1.8710136 -1.7518224
000130 fa 20 9d 3f a7 fb 1c bf 94 81 f4 bf 55 5f 31 c0
       1.2275689 -0.6132149 -1.9102044 -2.7714436
000140 52 44 e1 bf e7 cb 08 c0 3a dd 76 c0 48 80 bf 3f
       -1.7598975 -2.1374452 -3.8572526 1.4961023
000150 38 01 b8 bf 03 10 f6 bf 01 f1 85 3d 82 a7 8e bf
       -1.4375372 -1.9223636 0.065401085 -1.1144869
000160 35 c9 86 bf c2 29 41 3f 44 c9 4a 3e 9c c0 30 3f
       -1.0530154 0.7545434 0.19803339 0.690439
000170 f6 8a e3 be 3c 3a 8c 3d f0 54 22 bf 9a 6c e6 be
       -0.44441956 0.06847045 -0.63410854 -0.4500473
000180 eb 86 8b bf 96 2e 3b c0 99 4a 59 c0 96 3a 5e bf
       -1.0900549 -2.9247184 -3.395178 -0.86808145
000190 a8 9d 4b c0 f8 de 26 3e 71 91 b4 bf ff a0 05 c0
       -3.1814976 0.16295993 -1.4106885 -2.0879514
0001a0 fe f8 42 bf 22 9d 0b c0 a1 50 43 bf d3 2c 91 3f
       -0.7616118 -2.1814656 -0.76294905 1.1341804
0001b0 62 43 01 40 fb 2e e1 bf cc ff 18 3e 72 c8 09 40
       2.0197377 -1.7592462 0.14941329 2.1528592
0001c0 15 bc fa bf dc 57 00 bf 0c 70 fc bf d2 c1 ec 3f
       -1.9588648 -0.5013406 -1.9721694 1.8496649
0001d0 e2 56 7d bf 6a e5 4f c0 89 fc c7 be f9 b8 aa 3e
       -0.989607 -3.2483773 -0.39059857 0.33344248
0001e0 58 a3 cf bf 13 68 4c bf b0 37 d3 3d 7d 71 53 3f
       -1.6221724 -0.79846305 0.10313356 0.82595044
0001f0 c6 06 d5 be ce a5 15 be c4 9c 1b c0 10 fe 94 bd
       -0.4160673 -0.1461403 -2.4314432 -0.07275021
