tests/data/npy/model.22.cv3.1.0.conv.bias.npy (npy, 448 bytes, 1 tensors)

array f4 [80]
0	0xbf2eb3e2	-0.6824323
1	0xbf9f0254	-1.2422585
2	0x3f9aff3e	1.2109144
3	0x3efbed40	0.49204445
4	0x3f99b5cc	1.2008605
5	0x3f507bf4	0.8143914
6	0xbf9e37ae	-1.2360742
7	0xbf86f036	-1.0542057
8	0xbd8371b4	-0.064181715
9	0xc03f8129	-2.9922583
10	0x3fc76c56	1.5579937
11	0x3e728961	0.23685218
12	0x3f1637aa	0.58678687
13	0xbf53554e	-0.8255204
14	0xbd805b0f	-0.06267368
15	0x3c677bc0	0.014128625
16	0x3dfaf0ec	0.122529835
17	0xbf6947a4	-0.9112494
18	0xbf018dae	-0.5060681
19	0x3f53c64a	0.8272444
20	0x3f29665d	0.6617182
21	0xc00627aa	-2.096171
22	0xbfe9189e	-1.8210638
23	0xbffb5f45	-1.9638449
24	0x3f7312b9	0.94950444
25	0x3e6d5934	0.2317856
26	0xbf8a58fc	-1.0808406
27	0x3dd4bbad	0.10387359
28	0x3e0db4da	0.1383852
29	0xbe953d1f	-0.29148194
30	0x40816846	4.0439787
31	0xc05e8252	-3.4767041
32	0xbfb66298	-1.4248838
33	0xbeb390ff	-0.3507156
34	0x3f8efd86	1.1171119
35	0x3da9fad0	0.08299792
36	0xbf8cfe89	-1.1015178
37	0xbe836cf7	-0.2566907
38	0x3efd55b5	0.49479452
39	0x3ebb8468	0.36624455
40	0x3f013f9c	0.50487685
41	0x3f25b904	0.64735436
42	0xbf5ec7ec	-0.87023807
43	0x3e5bc2ce	0.21461031
44	0x3ec0ed48	0.3768103
45	0x3f070e34	0.5275605
46	0xbf6231cf	-0.8835725
47	0xbf43c2da	-0.76469195
48	0xbffea219	-1.9893218
49	0x3fdacbbe	1.7093427
50	0xbf38966c	-0.72104526
51	0x3e93c3a4	0.288602
52	0x3e40b9da	0.18820897
53	0x3f9af561	1.2106134
54	0x3f9df4f8	1.2340384
55	0xbf5cc186	-0.86232793
56	0xbed24602	-0.41069037
57	0x3f8dfbbb	1.1092447
58	0x3eb4fdd6	0.3534991
59	0xbf41ca52	-0.7569934
60	0xbfe4d43b	-1.7877268
61	0x3ded8d78	0.11599249
62	0x3f703a91	0.93839365
63	0xbfd6fd1a	-1.679599
64	0xbf1c95c1	-0.61166006
65	0xbfbdc9ab	-1.4827169
66	0xc02a5beb	-2.6618602
67	0xbebc4ebe	-0.36778826
68	0x3e28128c	0.16413325
69	0xbfa27ede	-1.2694967
70	0x3e26dc7c	0.16295046
71	0x3e687ab0	0.22703052
72	0xbfbecaf6	-1.4905689
73	0xbf78ef13	-0.972398
74	0xbfc824f6	-1.563628
75	0x3fd3e989	1.6555644
76	0xbed7e63a	-0.42167836
77	0x3e50ac14	0.20378143
78	0xbf972df4	-1.1810899
79	0xbfd95050	-1.6977634
