tests/data/npy/model.21.cv1.conv.weight.npy (npy, 393344 bytes, 1 tensors)

array f4 [256, 384, 1, 1]
000000 32 fa f9 bd 79 84 c9 3d ba ed 72 3e 92 64 25 be
       -0.12205924 0.0983972 0.23723498 -0.16151646
000010 31 2d 98 3d d7 55 53 3d 95 3c 69 be 1c 0e 61 3d
       0.074304946 0.051595535 -0.22777016 0.054945096
000020 f6 01 36 be dd 21 5a bd 14 c5 b7 bc 5a 2d 86 bc
       -0.17774186 -0.05325495 -0.022432841 -0.016379047
000030 f9 67 b9 bc ba ed f2 bd 04 6c 85 be 2e c7 94 3d
       -0.022632586 -0.11861749 -0.26058972 0.07264553
000040 c7 6e 61 bd 2e 00 b5 bd e9 0e 87 3b 31 66 b8 bc
       -0.055037286 -0.08837925 0.0041216505 -0.022509666
000050 03 f5 64 3d c4 96 9d bc 26 62 ec bd 7d 0c 4e be
       0.055897724 -0.01923693 -0.11542158 -0.20121951
000060 72 96 41 bd b0 ee 06 bd e9 47 a7 bc 07 d2 08 bd
       -0.047262616 -0.032942474 -0.020420032 -0.033403423
000070 1c 63 00 be 90 92 63 bd c0 47 b9 be 0e c0 90 3b
       -0.12537807 -0.055559695 -0.36187553 0.004417426
000080 d2 e4 ed 3c 4b a1 35 3d 75 c3 a4 3d 58 5b 44 3d
       0.029039774 0.044343274 0.08045093 0.047938675
000090 91 7b 44 be e8 5e 46 bd 28 fb 8d 3d b4 af ab 3d
       -0.19187762 -0.048430353 0.0693267 0.08383122
0000a0 c1 69 ba 3d 02 61 a3 3d eb 52 89 3e 73 f1 e2 3b
       0.09102202 0.07977487 0.26821074 0.0069257556
0000b0 a1 62 b6 bc d1 89 cc bb 40 9d e9 bc bd 1a 56 bd
       -0.022263827 -0.006242015 -0.028517365 -0.052271593
0000c0 1f 3b 44 3e 0e f9 30 3d c3 74 9c 3d d9 60 b5 bc
       0.19163178 0.043206267 0.07639458 -0.022140907
0000d0 2c bc 32 3e 79 bd e9 3d f4 2f f4 bc 59 7d c5 3d
       0.17454594 0.11413092 -0.029808022 0.09643049
0000e0 e6 53 e4 3c b4 76 8b 3d 99 8b 4d 3e e6 e1 a3 be
       0.027872037 0.0680975 0.20072784 -0.32008284
0000f0 58 e9 83 3c 9d da b1 bc 18 4d bc 3c fa 50 1a be
       0.016102478 -0.021710688 0.02298598 -0.15069953
000100 34 cc bb 3d f1 90 50 be a8 50 be bd 3f 09 28 bd
       0.09169808 -0.20367791 -0.09292728 -0.041024443
000110 21 7f 46 3d be ca 96 3d 96 b3 89 3d 56 a5 81 3d
       0.048461083 0.07362889 0.067237064 0.063303635
000120 62 3d 0f 3e 12 48 95 bd be 03 b7 bb 4d ac 17 be
       0.1398826 -0.07289137 -0.005585163 -0.14811821
000130 7d 0c ce 3d ca 9b 44 3b 1b 7a 1f be 01 06 02 3e
       0.10060976 0.0030000084 -0.15573923 0.12697603
000140 1c 0e 61 ba 2c f5 d2 bb 5c aa 28 be 26 62 ec 3d
       -0.00085851713 -0.006437918 -0.16471237 0.11542158
000150 33 1c 7b be 97 d5 8a 3d 08 66 4a be ab b6 41 be
       -0.24522476 0.0677902 -0.19765484 -0.18917339
000160 5e b5 8a be 11 5f 34 3d 2f e9 95 bc c5 b8 1e be
       -0.27091497 0.044035975 -0.018299667 -0.15500171
000170 2b 61 91 3e 66 fe 33 bd 87 99 f9 3c b3 8d aa bd
       0.28394446 -0.043943785 0.030468715 -0.08327808
000180 fc 06 5d 3d 0e c0 10 bd 83 9f 34 3e db 6b 17 3e
       0.05396174 -0.035339408 0.17638974 0.14787237
000190 15 20 59 3d fb ab bb 3c 2d a5 93 3d b8 37 30 bd
       0.05300911 0.022909155 0.07209239 -0.043021888
0001a0 04 17 e6 bd fa 50 1a bd 55 83 80 bd b1 bb e8 3c
       -0.11234859 -0.03767488 -0.062750496 0.02840981
0001b0 3d fe 45 be ab 44 81 be 10 04 93 3d fe 83 7f ba
       -0.19335265 -0.25247702 0.07178509 -0.00097471464
0001c0 22 a1 47 be a4 01 5a 3e fe d8 9e 3d 06 5b e8 3d
       -0.19495061 0.21289688 0.07756232 0.11345486
0001d0 42 a8 cb bd 56 de 21 3e 34 93 1b be 92 2b 05 bd
       -0.09944202 0.1580747 -0.15192872 -0.032512255
0001e0 1f 3b 44 bd 59 44 a5 be 80 39 31 3d 91 09 84 3e
       -0.047907945 -0.32278708 0.043267727 0.2578855
0001f0 fe 83 7f bd a1 d4 f6 bd 1d 85 81 3d 35 b5 9c bd
       -0.062381737 -0.120522745 0.063242175 -0.0765175
000200 6d ec bb 3e 87 ee 98 bd 13 6a 96 bc 42 6f ab 3e
       0.36703816 -0.074673705 -0.018361127 0.3348332
000210 b3 ff 6a 3e d5 d8 b0 3e 2a ea f0 bd dc 38 79 3e
       0.22949104 0.3454043 -0.11763413 0.24338096
000220 e1 37 1e 3e a3 a6 b8 3e 90 59 43 bd ac d8 42 3d
       0.15451004 0.36064634 -0.047692835 0.047569916
000230 6e 0e 3d 3c 91 b4 e4 3e b1 82 48 3d a1 9b 56 3e
       0.011539085 0.4466901 0.048952762 0.20957805
000240 db dd d7 3d 90 20 a3 3d 8b af 3d 3e f5 a6 94 bc
       0.105403624 0.07965195 0.18523996 -0.018146018
000250 14 c5 b7 3e f1 c9 70 3e 0a aa cc bc a6 45 5c 3d
       0.35892546 0.23514535 -0.024983425 0.05377736
000260 be ca 16 3e 66 37 d4 be 03 4a 84 bd 1d f7 41 bd
       0.14725778 -0.41448516 -0.06459429 -0.047354806
000270 9e 6e 73 be 37 f9 1e bc 9f 57 d4 be 0b cc 4d bd
       -0.23772666 -0.009702972 -0.414731 -0.05024342
000280 19 36 9d 3d 5f 10 ac bd f6 01 b6 be ca 29 84 be
       0.07676334 -0.0840156 -0.3554837 -0.25813133
000290 23 51 88 3d 28 fb 8d 3d 2e c7 94 be d1 50 2c be
       0.066561006 0.0693267 -0.29058212 -0.16827704
0002a0 f1 90 d0 3e de 0a 3b bd ee 2a 4d 3e ab 44 81 3e
       0.40735582 -0.04566466 0.20035908 0.25247702
0002b0 b8 fe 0f 3d a6 45 5c 3e b3 54 8a bd b2 6b a9 3d
       0.035155028 0.21510944 -0.06754436 0.082724944
0002c0 e2 cb df bd ad c1 a3 be be 03 b7 3d ec 74 0a be
       -0.109275594 -0.319837 0.08936261 -0.13521165
0002d0 a0 b2 75 be eb 8b a9 be 22 2f 07 3e ea 69 a8 be
       -0.23993921 -0.3311456 0.13201573 -0.32893306
0002e0 7f 89 f0 bd e5 86 02 3d b6 2c 4e 3d a0 07 95 be
       -0.11744975 0.031866927 0.05033561 -0.2910738
0002f0 6c 91 9a bd 1c 9c 20 3d 97 d5 8a be d1 50 ac 3d
       -0.07547268 0.039211378 -0.2711608 0.08413852
000300 64 ba 31 be 01 06 02 bd ca d4 e4 bd 78 f0 07 3e
       -0.17356259 -0.031744007 -0.11173399 0.13275325
000310 30 0b 97 bd 74 68 03 3d fe d8 9e 3e 93 f8 e6 bc
       -0.07375181 0.032082036 0.31024927 -0.028194701
000320 1e a7 82 bc 66 70 74 3e b5 d1 ac bd 64 2c 72 be
       -0.015948828 0.23871002 -0.08438436 -0.23649746
000330 b6 2c 4e be a9 ab df 3d 16 d0 19 3d 21 0d 06 3d
       -0.20134243 0.109214135 0.03755196 0.032727364
000340 89 dd fb 3d e5 86 02 3f f7 23 37 be 07 d2 08 3d
       0.12298114 0.5098708 -0.17884813 0.033403423
000350 24 73 09 bc 81 5b 32 be e8 5e c6 bd 33 e3 da 3d
       -0.008389268 -0.17417718 -0.09686071 0.10687866
000360 94 6f 87 be 3a 26 02 bd 45 d5 ae be 06 22 48 bc
       -0.26452315 -0.031774737 -0.34147087 -0.012215143
000370 c4 08 de bd 30 b6 f7 3d 8c 0a 5f be 88 49 ba be
       -0.10841516 0.120952964 -0.21781367 -0.36384225
000380 2c f5 d2 be dd af 19 3e a1 29 96 3d b4 af 2b bf
       -0.41202676 0.15008493 0.07332159 -0.67064977
000390 ca d4 64 bd 0c 27 ef be db 16 f8 bd 85 e3 36 3f
       -0.055866994 -0.46709478 -0.12113734 0.7144092
0003a0 b0 27 a7 3e 1c 0e 61 3d 6c 91 1a 3e b9 20 91 be
       0.32647467 0.054945096 0.15094537 -0.28345278
0003b0 40 f2 08 3e 58 22 24 bd 46 f7 2f be c2 fd 7b be
       0.13373661 -0.040071815 -0.17184171 -0.2460852
0003c0 f0 fc 0e be d6 fa 31 3d 84 88 95 3e 8f c5 01 be
       -0.13963675 0.043452106 0.29205716 -0.12673019
0003d0 7a 34 8a 3e ad c1 23 3e 21 b8 e6 be 9d 13 52 3e
       0.2699316 0.1599185 -0.45062354 0.20515294
0003e0 b3 54 0a bf 1e e0 a2 bd ba b4 d2 bc 71 ad e0 bd
       -0.5403549 -0.07952903 -0.025720943 -0.10970581
0003f0 17 2b 3b 3e 0a 38 8c 3e d4 7d 0f be 83 11 75 bd
       0.18278156 0.27386504 -0.14012843 -0.059831154
