tests/data/npy/model.9.cv2.conv.bias.npy (npy, 1152 bytes, 1 tensors)

array f4 [256]
-1.4204241 -1.3640116 -0.09934378 -0.6553645 -5.3350472 -4.765954 -4.919548 -2.1060376
-0.35178566 -3.4518054 -1.7464224 -4.197392 -5.2775927 1.1689285 -0.2724706 -0.0071207285
0.29076672 -1.3567196 0.39413548 -1.008068 -0.062457457 4.3667803 2.0857494 1.3330615
-2.0819616 -1.7739173 -2.1395125 -2.0538094 -4.535951 -3.5636728 1.2096525 0.78448915
-0.36344683 -0.26393944 -6.1880236 -0.5484636 -0.9246222 -5.066081 -4.5930004 -0.068008006
-1.8734818 -4.4590654 1.6652343 -3.252906 -1.5730544 -3.880186 -3.6166947 -2.777707
1.6979604 -0.6080617 -1.2948968 -1.3967111 1.8748894 -2.7534165 -0.8277785 3.8664622
3.1597114 -3.16776 -0.8575009 -0.9812921 5.417127 -1.626565 -3.191372 -4.556173
0.95976377 4.5321765 -3.3304563 -5.1848507 -2.1287901 -7.3216653 -0.8454056 -1.7006015
-4.6516 -3.070838 -2.0892994 3.862052 -5.2500744 -1.249059 -4.9696207 -0.9113511
1.3151402 -4.9960127 -3.1219041 0.65188694 -2.2939825 -0.5322594 -1.5891987 -2.2700696
-1.7851173 -3.356132 3.960288 -1.472868 0.5707743 -1.9228637 -4.0134273 0.8639966
0.10293853 -3.472258 -3.7610774 -1.9511929 -2.0918574 1.5799375 -5.6159315 -0.6576788
-4.9306006 -2.0109859 -3.5267265 1.0856116 1.6514943 -3.0414777 -2.9059858 -2.2408957
-5.495118 -0.37972465 -1.895276 -2.5625348 -4.241642 1.150064 -2.6566148 -0.07841809
-2.1130972 -3.3212733 -3.8471065 -3.704585 -1.378613 -0.42451745 -4.531187 -1.7754618
0.06474909 4.0236645 0.6734948 -1.4001813 -0.76320815 -2.6451354 -5.7450647 -5.5425286
-0.92527974 -4.6478205 3.3217156 1.4399226 -1.6635901 0.38005304 -1.906987 -0.7554294
-1.2003568 -2.4683106 -2.3292038 -5.3108606 -4.136243 -1.785951 -3.6422105 -1.3939779
-2.2031398 -5.806674 -1.1429363 -2.9997604 -5.1726046 -2.64463 -4.422327 -0.86697227
0.61259305 -3.7992978 0.564811 -4.1335745 3.834486 -1.3619075 2.7127423 -2.0489123
-1.21136 -3.610233 -4.06479 -2.931265 -1.7621427 -0.7943001 0.031924367 -0.6135948
0.788679 3.0650063 -2.0453253 -2.5620654 -3.4247744 -1.3672073 -2.4242976 -4.3576965
-3.4777086 -3.8295777 0.6660813 0.6643906 1.5757296 -3.6031504 0.21555734 -3.383111
0.61480117 -1.6998107 -3.4253862 -2.9931767 -7.5129695 -3.099524 0.21638477 -5.625138
1.3161938 -0.6386956 1.4895773 3.908935 -4.397642 -0.88204336 0.17288065 -1.606488
0.9288981 -1.5004734 -4.013477 1.8114476 -3.3236442 -4.853901 -3.0440512 1.0840952
-1.1767821 -0.31666064 -5.401546 0.06747627 -1.6651796 -0.8087234 1.6654758 0.22735
-4.421277 -1.8699208 -0.5833753 0.29605824 0.9963031 -3.961623 -1.6019331 -1.4440192
-4.849076 1.1429442 -3.6783538 -0.20936418 -5.1155744 -2.246108 -4.5553904 -0.38668013
-4.997188 -3.4541967 -3.4974134 -3.895958 0.65163195 2.0248885 -1.4690393 1.5678177
2.0079544 -0.5177597 -2.6674104 -1.2838174 0.4391445 -2.913682 -2.9708586 -4.5509768
00000000: 75d0 b5bf ef97 aebf c074 cbbd f8c5 27bf
00000010: b5b8 aac0 b282 98c0 f06c 9dc0 52c9 06c0
00000020: 401d b4be 61ea 5cc0 c58a dfbf 0951 86c0
00000030: 0ae2 a8c0 739f 953f 4481 8bbe 0055 e9bb
00000040: 60df 943e fda8 adbf 20cc c93e 5f08 81bf
00000050: 64d3 7fbd aabc 8b40 eb7c 0540 c2a1 aa3f
00000060: dc3e 05c0 b90f e3bf c6ed 08c0 9d71 03c0
00000070: 8326 91c0 3713 64c0 e5d5 9a3f 48d4 483f
00000080: b415 babe 1223 87be 4a04 c6c0 1c68 0cbf
00000090: 0ab4 6cbf 561d a2c0 dcf9 92c0 c847 8bbd
000000a0: 40ce efbf aab0 8ec0 6626 d53f 9d2f 50c0
000000b0: d959 c9bf f854 78c0 ed77 67c0 f4c5 31c0
000000c0: c456 d93f eea9 1bbf 2ebf a5bf 6ec7 b2bf
000000d0: 60fc ef3f fa37 30c0 4be9 53bf 1e74 7740
000000e0: b638 4a40 94bc 4ac0 2e85 5bbf f635 7bbf
000000f0: 1b59 ad40 4833 d0bf 703f 4cc0 2bcc 91c0
00000100: 14b3 753f 9707 9140 3226 55c0 4cea a5c0
00000110: 193e 08c0 154b eac0 806c 58bf 4fad d9bf
00000120: e8d9 94c0 9c88 44c0 15b7 05c0 dc2b 7740
00000130: 9c00 a8c0 2ae1 9fbf 2207 9fc0 4e4e 69bf
00000140: 8456 a83f 56df 9fc0 47cd 47c0 10e2 263f
00000150: 9cd0 12c0 2742 08bf dd6a cbbf d248 11c0
00000160: b97e e4bf deca 56c0 5c75 7d40 f086 bcbf
00000170: 441e 123f 6620 f6bf ff6d 80c0 e22e 5d3f
00000180: 70d1 d23d 7a39 5ec0 7eb5 70c0 b0c0 f9bf
00000190: fee0 05c0 643b ca3f b6b5 b3c0 a35d 28bf
000001a0: 7bc7 9dc0 feb3 00c0 e3b5 61c0 52f5 8a3f
000001b0: 2a64 d33f 92a7 42c0 acfb 39c0 d66a 0fc0
000001c0: 02d8 afc0 456b c2be 6798 f2bf 9200 24c0
000001d0: 88bb 87c0 4c35 933f fa05 2ac0 aa99 a0bd
000001e0: fc3c 07c0 be8f 54c0 fe36 76c0 ec17 6dc0
000001f0: 6476 b0bf 5a5a d9be 7cff 90c0 5542 e3bf
00000200: 2c9b 843d dcc1 8040 286a 2c3f 2439 b3bf
00000210: 9c61 43bf e649 29c0 92d7 b7c0 655c b1c0
00000220: 22df 6cbf f2ba 94c0 fd96 5440 624f b83f
00000230: 85f0 d4bf 5096 c23e 2618 f4bf d263 41bf
00000240: 4ba5 99bf cdf8 1dc0 ad11 15c0 92f2 a9c0
00000250: 1a5c 84c0 0b9a e4bf fa19 69c0 de6d b2bf
00000260: 3e00 0dc0 46d0 b9c0 bd4b 92bf 13fc 3fc0
00000270: fa85 a5c0 9e41 29c0 b483 8dc0 e5f1 5dbf
00000280: e6d2 1c3f b227 73c0 7497 103f 3e46 84c0
00000290: 3868 7540 fc52 aebf 929d 2d40 6121 03c0
000002a0: d80d 9bbf 0f0e 67c0 c212 82c0 d999 3bc0
000002b0: e48d e1bf 4057 4bbf 20c3 023d 8c14 1dbf
000002c0: dee6 493f 1029 4440 9ce6 02c0 e1f8 23c0
000002d0: 812f 5bc0 a600 afbf b127 1bc0 4072 8bc0
000002e0: c792 5ec0 cd17 75c0 4e84 2a3f 8115 2a3f
000002f0: 82b1 c93f 049a 66c0 10bb 5c3e e484 58c0
00000300: 9c63 1d3f 6693 d9bf 8739 5bc0 3590 3fc0
00000310: 3f6a f0c0 9a5e 46c0 f893 5d3e 2101 b4c0
00000320: 0a79 a83f 8e81 23bf 78aa be3f fe2b 7a40
00000330: 7cb9 8cc0 98cd 61bf a007 313e 66a1 cdbf
00000340: 44cc 6d3f 830f c0bf 676e 80c0 84dd e73f
00000350: 96b6 54c0 2853 9bc0 bcd1 42c0 a2c3 8a3f
00000360: cca0 96bf 5821 a2be 77d9 acc0 0031 8a3d
00000370: 9b24 d5bf 7f08 4fbf 502e d53f 70ce 683e
00000380: 1a7b 8dc0 9159 efbf 1558 15bf f294 973e
00000390: b80d 7f3f 3b8b 7dc0 250c cdbf 9fd5 b8bf
000003a0: a12b 9bc0 ff4b 923f 266a 6bc0 9063 56be
000003b0: c9b2 a3c0 3cc0 0fc0 c2c5 91c0 f0fa c5be
000003c0: f7e8 9fc0 8f11 5dc0 9fd5 5fc0 6057 79c0
000003d0: 5ad1 263f c697 0140 7b09 bcbf 40ae c83f
000003e0: 5382 0040 e68b 04bf dab6 2ac0 2154 a4bf
000003f0: 8cd7 e03e c479 3ac0 8c22 3ec0 9aa1 91c0
