tests/data/npy/model.6.m.0.cv1.conv.weight.npy (npy, 147584 bytes, 1 tensors)

array f4 [64, 64, 3, 3]
-0.02385266 -0.13718714 -0.14825949 -0.115749195 -0.18375382 -0.0738549 0.00969321 -0.2916503
-0.046959307 -0.04256178 0.000115950425 -0.07899843 -0.09274071 -0.27892888 -0.036691867 0.09800203
-0.064627945 0.023145914 0.043778952 -0.10067196 -0.12721418 0.05280959 -0.18972188 -0.03292256
0.055989943 -0.24908851 0.067769036 0.11174431 0.020201141 0.03056674 0.062782556 0.13640188
0.12077495 0.11826207 0.06482426 0.0072588646 0.072519936 -0.02310665 0.07267699 0.13278961
-0.09910142 -0.06977148 -0.038949527 0.077584945 -0.09902289 0.0760144 -0.112451054 -0.051474627
-0.07891991 0.3700205 0.1796704 -0.02452014 -0.06957516 0.011406086 0.023636708 0.06352856
-0.016127538 -0.051592417 -0.2629093 -0.06859357 0.051160518 -0.18532436 -0.066394806 0.043896746
-0.09753087 -0.07244141 -0.023126282 0.10671856 -0.04633109 0.020093165 -0.25160137 -0.028073499
0.034689423 0.013349636 -0.01926863 -0.06725861 -0.13632335 -0.028466135 -0.14551103 0.11095904
-0.0393029 0.03286366 -0.06352856 -0.046174034 0.051592417 -0.024480877 0.019661266 0.031175327
0.025285782 -0.02106494 -0.002677289 -0.057089325 0.0042551965 0.11637741 -0.41305345 -0.049393654
-0.055950683 0.07511134 -0.04267957 -0.04236546 0.04299368 -0.12148169 -0.0032907834 0.17715752
0.102949254 0.046566673 0.06580585 -0.01960237 -0.062232863 -0.018964335 -0.019366788 -0.030488214
0.04915807 0.042797364 0.115749195 0.08920698 0.0401667 0.019425685 -0.054576453 -0.16074532
0.08449534 -0.03249066 -0.12030378 -0.043504108 -0.06666965 -0.0626255 -0.05021819 0.06545248
-0.014576625 0.040363017 -0.14967299 0.1243872 -0.11928292 0.06894694 -0.02483425 0.0712635
-0.06941811 -0.077035256 0.029192513 0.08881434 0.029663676 -0.07271625 0.15210733 0.015921405
0.06765124 -0.12320929 -0.024225663 0.07310889 -0.17982745 0.0040073446 0.04762679 0.07672115
-0.045153182 0.0014392576 0.049197335 -0.087243795 -0.068161674 0.19192065 0.086772636 -0.028799877
-0.096038856 0.010296889 0.11771238 -0.12250254 -0.021693159 0.13773683 0.010002411 -0.038713943
-0.028701717 0.053123698 0.03832131 0.121089056 0.1261148 0.06863283 0.2770442 -0.17747164
-0.14323375 0.18061273 0.21909109 0.0069202157 0.08952109 -0.028387608 0.10349894 0.15768276
-0.3158367 -0.03922437 -0.12847061 -0.060858637 0.028583927 -0.106325924 0.01880728 0.03349188
0.018483356 0.03824278 0.03704524 0.032647714 -0.017786426 -0.06718008 -0.064942054 0.014360675
-0.06290034 -0.019111576 -0.16773425 -0.09839467 -0.017344711 0.033295564 -0.054262344 -0.102792196
-0.076289244 0.0072834045 0.066002175 -0.22380273 -0.010895659 0.016687045 0.27311784 -0.021457577
-0.0151165 -0.020770464 -0.006905492 0.0544194 0.121560216 -0.10530507 -0.010758236 0.072991095
-0.040480807 0.022105427 -0.08005855 -0.090541944 0.009703026 0.2726467 0.0768782 0.041855037
0.13263257 0.03908695 0.027975341 -0.07699599 -0.02754344 -0.13899326 0.14244847 -0.027288226
0.017933665 0.010267441 -0.009649038 0.06545248 0.11370749 0.12234549 -0.10781794 -0.016647782
-0.045938455 0.011818354 0.054340873 0.010650261 0.08904993 0.0050306534 -0.020888254 0.023342231
00000000: a766 c3bc c97a 0cbe 56d1 17be ea0d edbd
00000010: f629 3cbe 3d41 97bd 45d0 1e3c 3053 95be
00000020: 6758 40bd 4355 2ebd 692a f338 eec9 a1bd
00000030: d7ee bdbd c4cf 8ebe 364a 16bd 4ab5 c83d
00000040: a85b 84bd 809c bd3c 8f51 333d 1a2d cebd
00000050: 6f44 02be de4e 583d 7446 42be ced9 06bd
00000060: b655 653d 0f11 7fbe 7eca 8a3d 33da e43d
00000070: dd7c a53c 1a67 fa3c 2494 803d efac 0b3e
00000080: db58 f73d 6233 f23d 95c2 843d c5db ed3b
00000090: 5585 943d 284a bdbc acd7 943d 00fa 073e
000000a0: aff5 cabd 5ae4 8ebd 8a89 1fbd dbe4 9e3d
000000b0: 83cc cabd 70ad 9b3d bd4c e6bd 0fd7 52bd
000000c0: c3a0 a1bd 5473 bd3e 84fb 373e 76de c8bc
000000d0: 6c7d 8ebd 98e0 3a3c c5a1 c13c 431b 823d
000000e0: e61d 84bc 9252 53bd 0c9c 86be c97a 8cbd
000000f0: b18d 513d abc5 3dbe 00fa 87bd 13cd 333d
00000100: 44be c7bd 295c 94bd 5473 bdbc 438f da3d
00000110: abc5 3dbd 6c9a a43c e5d1 80be 65fa e5bc
00000120: 7f16 0e3d 6fb8 5a3c 3fd9 9dbc e2be 89bd
00000130: 5998 0bbe d031 e9bc d800 15be 7e3e e33d
00000140: 14fc 20bd 0c9c 063d 431b 82bd fc20 3dbd
00000150: 9252 533d 1f8c c8bc aa10 a13c 6663 ff3c
00000160: 2124 cf3c 6290 acbc 7575 2fbb 7fd6 69bd
00000170: 2d6f 8b3b 4857 ee3d be7b d3be 0051 4abd
00000180: 8b2c 65bd f9d3 993d c6d0 2ebd 6887 2dbd
00000190: 241a 303d 64cb f8bd 2faa 57bb c868 353e
000001a0: 0fd7 d23d b2bc 3e3d 38c5 863d 2695 a0bc
000001b0: e3e7 7ebd 185b 9bbc 19a7 9ebc 6bc2 f9bc
000001c0: f959 493d 4a4c 2f3d ea0d ed3d 26b2 b63d
000001d0: d685 243d 9d22 9f3c 8f8b 5fbd 6c9a 24be
000001e0: e50b ad3d ed14 05bd d461 f6bd 5d31 32bd
000001f0: 198a 88bd cc41 80bd 97b1 4dbd f30b 863d
00000200: ccd2 6ebc b153 253d e043 19be b7be fe3d
00000210: 9b4a f4bd 0e34 8d3d 3271 cbbc 99f2 913d
00000220: 152b 8ebd a9c4 9dbd 2325 ef3c 4be4 b53d
00000230: 3d01 f33c 42ec 94bd 06c2 1b3e 9b6d 823c
00000240: bc8c 8a3d 2755 fcbd e674 c6bc 1dba 953d
00000250: b024 38be 0b50 833b 4f14 433d fa1f 9d3d
00000260: 8bf2 38bd 79a5 bc3a 2583 493d e0ac b2bd
00000270: 5998 8bbd d986 443e dab5 b13d b8ed ebbc
00000280: 05b0 c4bd 48b4 283c 3013 f13d 9de2 fabd
00000290: dab5 b1bc e20a 0d3e 27e1 233c 8392 1ebd
000002a0: dd1f ebbc 3c98 593d cef6 1c3d 8afd f73d
000002b0: 3d24 013e 5f8f 8c3d bdd8 8d3e 20bb 35be
000002c0: deab 12be 8bf2 383e 6a59 603e fac2 e23b
000002d0: d556 b73d 218d e8bc 41f7 d33d 9777 213e
000002e0: 59b5 a1be bca9 20bd cd8d 03be e846 79bd
000002f0: d728 ea3c 68c1 d9bd ba11 9a3c c82e 093d
00000300: 686a 973c 76a4 1c3d c0bc 173d 9cb9 053d
00000310: d7b4 91bc b695 89bd 5700 85bd 0949 6b3c
00000320: e5d1 80bd e18f 9cbc 87c2 2bbe 2583 c9bd
00000330: 7f16 8ebc ee60 083d 3142 5ebd b784 d2bd
00000340: 893d 9cbd a0a9 ee3b 262c 873d 8b2c 65be
00000350: b583 32bc 45b3 883c 1ad6 8b3e cdc7 afbc
00000360: 32ab 77bc d226 aabc 7747 e2bb e0e6 5e3d
00000370: 90f4 f83d 2faa d7bd 5043 30bc 5b7c 953d
00000380: 34cf 25bd 7116 b53c bdf5 a3bd 0e6e b9bd
00000390: 71f9 1e3c 5998 8b3e 5172 9d3d 3070 2b3d
000003a0: d5d0 073e a319 203d 8b2c e53c 13b0 9dbd
000003b0: c8a2 e1bc 4054 0ebe 03de 113e 8f8b dfbc
000003c0: 9fe9 923c c538 283c 0017 1ebc f30b 863d
000003d0: 79df e83d 4690 fa3d a7cf dcbd ee60 88bc
000003e0: f629 3cbd c5a1 413c 8994 5e3d 6f7e 2e3c
000003f0: cf5f b63d 2ed8 a43b d81d abbc 3538 bf3c
