tests/data/npy/model.22.cv3.0.1.conv.weight.npy (npy, 230528 bytes, 1 tensors)

array f4 [80, 80, 3, 3]
0	0x3ed9f42a	0.42569095
1	0x3f5837b1	0.8445998
2	0x3edeb30f	0.43495986
3	0x3ee743ca	0.45168906
4	0x3f05ce0c	0.5226753
5	0x3ebcc905	0.36872116
6	0x3e220c23	0.15824942
7	0x3cdd8abe	0.027043696
8	0x3d0aaa92	0.033854075
9	0x3f3c8dc2	0.73653805
10	0x3f7a7aa0	0.9784336
11	0x3f22f931	0.63661486
12	0x3ebe2c99	0.371434
13	0xbd5cbb52	-0.05388958
14	0x3ecb05b3	0.39652786
15	0xbdced78a	-0.100997046
16	0x3d044cd6	0.03229984
17	0x3d1091c7	0.035295274
18	0xbe2f2080	-0.17102242
19	0xbf0e2384	-0.5552294
20	0xbe9eb0d3	-0.3099428
21	0xbea6e8a9	-0.3259938
22	0xbe9adefc	-0.3024825
23	0xbea20c23	-0.31649885
24	0x3c49847d	0.012299654
25	0xbd9f09b8	-0.077655256
26	0xbd2d6407	-0.04233172
27	0xbdba3d20	-0.0909369
28	0x3e425755	0.18978627
29	0xbc28c2c4	-0.010300342
30	0x3c844cd6	0.01614992
31	0x3dcc6947	0.099810176
32	0x3de4d587	0.111735396
33	0xbcecb479	-0.02889465
34	0xbe960275	-0.2929875
35	0xbe078a85	-0.13236435
36	0xbee103b0	-0.43948126
37	0xbf12309e	-0.57105434
38	0xbf0c670b	-0.5484473
39	0xbe06d8bb	-0.13168614
40	0x3ecb2354	0.3967539
41	0x3ea403e0	0.32034206
42	0xbd371d13	-0.04470546
43	0x3e0d18d5	0.13779004
44	0x3cf1e9e4	0.029530473
45	0xbe459504	-0.19295126
46	0xbf429299	-0.7600494
47	0xbea36fb7	-0.3192117
48	0xbe81680c	-0.25274694
49	0xbf7ab5e3	-0.9793379
50	0xbe1091c7	-0.1411811
51	0x3e3c34dd	0.1837954
52	0xbe4879ce	-0.19577715
53	0x3e33fd06	0.1757699
54	0x3e1550ab	0.14581554
55	0xbebc527f	-0.3678169
56	0x3dd67b38	0.10472721
57	0xbc59071d	-0.013246325
58	0xbef475c9	-0.47746113
59	0xbdb95013	-0.09048476
60	0x3d654c0e	0.055980735
61	0xbe8bf084	-0.27331936
62	0x3b5465da	0.003240934
63	0xbe8592c8	-0.26088548
64	0x3f1b5582	0.6067735
65	0xbdaf3e22	-0.08556773
66	0xbe1d11fb	-0.1533889
67	0x3e9038e2	0.28168398
68	0xbe1cb916	-0.1530498
69	0xbd8c84ac	-0.06861243
70	0x3e081ead	0.13292952
71	0xbe28fe08	-0.16503155
72	0x3caf5bc3	0.02140606
73	0x3c444f12	0.011981742
74	0xbdec7936	-0.11546557
75	0x3ca91ba9	0.020643072
76	0x3e542a97	0.20719372
77	0xbd2be2d1	-0.041964356
78	0xbe334b3c	-0.17509168
79	0x3f0626f1	0.5240317
80	0x3c0ed54e	0.008717848
81	0x3c743a86	0.014906531
82	0x3ccd1b11	0.02503732
83	0xbc6d83e5	-0.014496778
84	0x3d8bf084	0.06832984
85	0xbd881ead	-0.06646476
86	0x3e172ac6	0.1476241
87	0xbd983575	-0.07432071
88	0xbdb7939a	-0.089637
89	0xbe0859f0	-0.13315558
90	0x3d20a88f	0.03922325
91	0x3db0bf57	0.08630245
92	0x3c25a2b7	0.010109595
93	0xbd0ed54e	-0.034871392
94	0xbd7a3f5c	-0.06109558
95	0xbd1c9b75	-0.038234193
96	0xbd9f44fb	-0.07776829
97	0x3e8731a0	0.26405048
98	0xbe00221a	-0.12513009
99	0xbdce4362	-0.10071446
100	0xbd5fdb60	-0.05465257
101	0xbe87a826	-0.26495475
102	0xbd15a990	-0.03653866
103	0xbe8b3eba	-0.27196294
104	0x3cca8f2c	0.024726473
105	0xbdcb5e98	-0.09930152
106	0xbe3ea320	-0.18616915
107	0xbe250e8f	-0.16118835
108	0x3db0fa9b	0.08641549
109	0xbd451e7e	-0.048124783
110	0xbdc6292d	-0.096758224
111	0xbe3a3d20	-0.1818738
112	0x3cc12f05	0.023581991
113	0xbe97660a	-0.29570037
114	0xbec9fb04	-0.39449322
115	0xbeb71d13	-0.3576437
116	0xbf11ba18	-0.5692458
117	0xbe2dda8e	-0.16977903
118	0xbdaf5bc3	-0.08562424
119	0xbd9dc3c5	-0.07703356
120	0x3e117ed4	0.14208537
121	0x3f0c84ac	0.5488994
122	0xbd041192	-0.03224332
123	0xbeb1ca06	-0.34724444
124	0x3ec59504	0.38590252
125	0xbe9a2d32	-0.30112606
126	0xbed4dc61	-0.41574386
127	0xbe11ba18	-0.14231145
128	0xbe6743ca	-0.22584453
129	0xbe8d18d5	-0.27558008
130	0x3e691de5	0.2276531
131	0x3d9d6ae0	0.076864004
132	0xbdfab5e3	-0.122417234
133	0x3e37939a	0.179274
134	0x3e27f358	0.16401422
135	0xbe2a2658	-0.1661619
136	0xbdd57089	-0.10421855
137	0x3d89f8c8	0.067369044
138	0xbdc07d3b	-0.09398886
139	0x3b0b979f	0.002130009
140	0x3c101b40	0.008795559
141	0x3d94f7c6	0.072738215
142	0xbe1e9331	-0.15485837
143	0xbe7f5726	-0.24935588
144	0xbf0bf084	-0.5466387
145	0xbf0eb7ac	-0.5574901
146	0xbe000478	-0.12501705
147	0xbee2a288	-0.44264627
148	0xbe98e73f	-0.29863927
149	0xbd0b2118	-0.033967108
150	0x3e0d8f5c	0.13824219
151	0x3dd8ae38	0.105801046
152	0x3e9d2f9d	0.3070039
153	0x3cceb9e8	0.025235131
154	0x3f01a34f	0.50639814
155	0x3e46bd55	0.19408162
156	0x3d3b6571	0.04575104
157	0xbc01680c	-0.007898342
158	0x3e03d64f	0.12874721
159	0x3e59071d	0.2119412
160	0xbc3a1f7f	-0.011360048
161	0x3e332d9b	0.17497866
162	0xbe37939a	-0.179274
163	0x3c9dc3c5	0.01925839
164	0x3cc89770	0.024486274
165	0xbe9d8882	-0.3076821
166	0x3e42eb7e	0.19035146
167	0xbe083c4f	-0.13304256
168	0xbd66afa2	-0.05631984
169	0xbd215a59	-0.039392803
170	0xbe20e3d3	-0.15711908
171	0xbe3914d0	-0.18074346
172	0x3daa43fa	0.08313747
173	0x3eaaba81	0.33345416
174	0x3e158bef	0.14604162
175	0x3d9dc3c5	0.07703356
176	0x3e9091c7	0.2823622
177	0x3df562d6	0.11981742
178	0x3ea58515	0.32328096
179	0x3efc1977	0.49238178
180	0x3de93b87	0.11388307
181	0xbd6b15a2	-0.057393678
182	0xbe0d8f5c	-0.13824219
183	0xbbf9c8d6	-0.0076228185
184	0xbe8d3676	-0.27580613
185	0xbe5c9db1	-0.2154453
186	0x3ee17a37	0.44038555
187	0x3d183575	0.037160356
188	0x3e6e70f2	0.23285273
189	0xbdd7fc6e	-0.10546194
190	0x3c265481	0.010151983
191	0x3d8f2e33	0.06991234
192	0x3cfbde34	0.030745603
193	0xbd6eac35	-0.0582697
194	0xbbf0c193	-0.0073472946
195	0xba409adc	-0.00073472946
196	0xbdab3107	-0.083589606
197	0xbbb914d0	-0.005648233
198	0x3e215a59	0.15757121
199	0xbe5e956d	-0.21736689
200	0x3e47163a	0.19442073
201	0x3db73ab5	0.08946744
202	0xbe2810fa	-0.16412726
203	0xbd15a990	-0.03653866
204	0x3df3ff42	0.11913921
205	0x3e188e5a	0.14898053
206	0x3d5d4f7b	0.054030877
207	0x3df73cf1	0.120721705
208	0x3f1d2f9d	0.6140078
209	0xbd8d8f5c	-0.06912109
210	0x3c165b5a	0.009177053
211	0x3db7ec7f	0.08980655
212	0xbda4d34b	-0.080481134
213	0xbdf701ae	-0.12060867
214	0xbe0c84ac	-0.13722485
215	0xbe0f2e33	-0.13982467
216	0x3ce9b20e	0.028527286
217	0x3e2a7f3d	0.166501
218	0x3de72629	0.11286575
219	0x3c2282aa	0.009918848
220	0x3d05ebad	0.03269546
221	0xbd531fe8	-0.0515441
222	0xbcec96d7	-0.02888052
223	0xbeb2d4b6	-0.3492791
224	0xbd542a97	-0.05179843
225	0xbd55e710	-0.05222231
226	0x3e4239b4	0.18967324
227	0x3ee03445	0.43789878
228	0xbd8aaa92	-0.06770815
229	0xbdfdb84f	-0.1238867
230	0x3ec78cc1	0.38974574
231	0x3d29eb15	0.041483957
232	0x3d69cfaf	0.057082828
233	0xbd82905d	-0.06375191
234	0xbc874f41	-0.016517283
235	0x3d4d73f6	0.050159417
236	0xbe5e1ee6	-0.21691474
237	0xbe352557	-0.17690025
238	0xbeb1e7a8	-0.34747052
239	0xbed07661	-0.40715316
240	0x3cdf0bf4	0.02722738
241	0xbcb0bf57	-0.021575613
242	0x3d939432	0.072060004
243	0x3f3fe912	0.7496501
244	0x3f7701ae	0.9648694
245	0x3f59071d	0.8477648
246	0x3f88d077	1.0688618
247	0x3f68e2a2	0.90970814
248	0x3f997b68	1.1990786
249	0x3f2d81a9	0.6777597
250	0x3f7e2ed5	0.9929021
251	0x3f4274f7	0.75959724
252	0xbe09bd84	-0.134512
253	0x3dc9847d	0.09839723
254	0xbd4e9c47	-0.050442006
255	0xbe444f12	-0.19170788
