tests/data/npy/model.9.cv1.conv.weight.npy (npy, 131200 bytes, 1 tensors)

array f4 [128, 256, 1, 1]
0.03638156 -0.0025124853 -0.014450185 0.10256372 -0.04597363 -0.13012926 -0.20959753 0.042279594
-0.044545684 -0.13534437 -0.016530018 -0.012106492 -0.11057263 0.06494047 0.25678182 -0.12584543
0.06798261 0.020658642 -0.059104517 -0.07357022 0.12125117 -0.0817033 0.07375647 0.25020084
-0.07741947 0.18252864 -0.014566594 0.022505658 -0.09045722 -0.14776129 -0.06990723 -0.004136385
0.0126264505 -0.036319476 -0.1763202 0.073197715 -0.07866116 -0.060780797 -0.17954859 0.06934847
-0.09126432 -0.10722006 -0.22921625 -0.066554666 0.036598857 0.0065460424 -0.14192533 -0.18016943
-0.0881601 -0.05317544 -0.020208528 -0.13099845 0.033370458 -0.19655976 -0.0776678 -0.084869616
-0.08449711 -0.015404735 -0.080027014 -0.09859031 -0.15434225 0.1223687 0.299496 -0.051747493
-0.08139288 -0.11733985 -0.021341573 -0.10281206 -0.12752172 -0.07046599 -0.11702942 0.12621795
0.038895987 0.26671535 0.037219703 -0.0676101 -0.100390755 -0.14043531 0.02537707 -0.009576546
-0.06394711 -0.16787669 -0.1106968 0.04768095 -0.0029684186 -0.01044573 -0.22611202 -0.20885251
-0.057924908 0.015505622 0.0068875076 0.08337958 -0.109827615 0.0076596844 -0.119947396 0.03541925
0.036816154 0.048208673 -0.109827615 -0.00025149103 0.036691982 -0.10312248 -0.14825797 -0.07561901
-0.010259476 0.15098968 0.14465706 -0.15459059 0.025051126 -0.016498975 0.05451026 -0.12491416
-0.057428233 -0.106971726 0.036319476 -0.0044274065 -0.1026258 0.22586368 -0.04476298 -0.20959753
-0.13906945 0.23455553 0.13956612 0.049170982 0.10169453 0.06717551 0.061432686 -0.09200934
-0.03215981 -0.021481263 0.0069379513 0.13385434 0.026758451 -0.059508067 0.041037902 0.05062997
0.11907821 -0.013386986 -0.19978817 0.045507994 0.021093234 -0.115539394 0.04013768 -0.108275495
-0.033028994 0.21319842 0.03827514 0.13062595 0.12125117 0.060377248 -0.021698559 0.039454747
-0.048363883 0.08151705 -0.09281644 -0.26919872 0.024678618 -0.13050178 -0.038026802 -0.019354867
-0.11224891 0.06118435 0.04603571 0.004586498 0.06705134 0.059073474 -0.15049301 0.06618216
-0.039920382 -0.18563288 0.06928638 -0.059477024 -0.23679057 -0.009281644 -0.044607766 -0.026541157
0.011214026 -0.06587173 -0.10455042 -0.10361916 -0.15148637 0.047836166 -0.013247296 -0.053827327
-0.09412021 0.02320411 0.0070504798 -0.108896345 -0.16800086 0.12367247 -0.17358847 -0.10045284
-0.13795193 0.033122122 -0.023576617 -0.04302461 -0.036009055 -0.09505148 -0.09107807 -0.029986849
0.09461689 0.021093234 -0.010833758 0.18116279 -0.060998093 0.06897596 -0.08890511 -0.060035784
-0.04901577 0.03734387 0.19432472 0.316383 0.014318255 0.13472353 -0.035884883 0.082075804
0.047556784 -0.1280184 -0.11212474 -0.18165946 -0.031259585 -0.16787669 0.21679933 0.063885026
-0.096293174 -0.047743037 -0.18712291 0.06916222 0.083627924 -0.052865017 -0.039423704 -0.0044623287
0.03458111 -0.13385434 -0.18389452 -0.03473632 0.16290992 -0.04383171 -0.15521143 0.29477757
-0.17122926 -0.21096338 -0.106847554 -0.017399203 -0.05221313 0.052833974 -0.06487838 0.041565623
-0.08275874 0.07450149 0.0276742 -0.043707542 -0.114608124 0.11044846 -0.04886056 -0.012936873
00000000: d504 153d 82a8 24bb 78c0 6cbc ed0c d23d
00000010: d84e 3cbd 9b40 05be bca0 56be 5e2d 2d3d
00000020: 8975 36bd b797 0abe f669 87bc 4f5a 46bc
00000030: e773 e2bd 82ff 843d e878 833e a0dd 00be
00000040: 773a 8b3d 503c a93c 9417 72bd fcab 96bd
00000050: 8952 f83d 0f54 a7bd a20d 973d 531a 803e
00000060: 198e 9ebd cae8 3a3e b9a8 6ebc c95d b83c
00000070: a341 b9bd bc4e 17be 862b 8fbd 838a 87bb
00000080: 2cdf 4e3c bbc3 14bd 488d 34be afe8 953d
00000090: 1a19 a1bd 49f5 78bd 96db 37be 9206 8e3d
000000a0: cae8 babd 3196 dbbd aab7 6abe d04d 88bd
000000b0: afe8 153d 2f80 d63b e054 11be 567e 38be
000000c0: 488d b4bd 7dce 59bd 5b8c a5bc 7524 06be
000000d0: 76af 083d f646 49be 4c10 9fbd 1fd0 adbd
000000e0: d20c adbd 2464 7cbc 34e5 a3bd b7e9 c9bd
000000f0: e50b 1ebe 719c fa3d 8a57 993e 2ef5 53bd
00000100: 4fb1 a6bd e04f f0bd 86d4 aebc 218f d2bd
00000110: 0e95 02be 7950 90bd 1fad efbd 473f 013e
00000120: 6651 1f3d ea8e 883e b073 183d 2a77 8abd
00000130: ab99 cdbd 46ce 0fbe 93e3 cf3c f2e6 1cbc
00000140: b4f6 82bd dee7 2bbe 01b5 e2bd 1a4d 433d
00000150: cd89 42bb 9124 2bbc e989 67be 6fdd 55be
00000160: ab42 6dbd 4b0b 7e3c 9ab0 e13b eac2 aa3d
00000170: 4ded e0bd 17fe fa3b fba6 f5bd c713 113d
00000180: 89cc 163d 7576 453d 4ded e0bd 8eda 83b9
00000190: 554a 163d e131 d3bd f0d0 17be 24de 9abd
000001a0: 5c17 28bc 0a9d 1a3e fb20 143e ff4c 1ebe
000001b0: 0538 cd3c dc28 87bc 2646 5f3d ffd2 ffbd
000001c0: de39 6bbd fe13 dbbd bbc3 143d c713 91bb
000001d0: 7a2d d2bd cf48 673e 6359 37bd bca0 56be
000001e0: 3968 0ebe 532f 703e 6cea 0e3e 8367 493d
000001f0: 3945 d03d 5093 893d d7a0 7b3d 656f bcbd
00000200: 01ba 03bd 79f9 afbc c157 e33b 1d11 093e
00000210: 8a34 db3c bbbe 73bd 5c17 283d 5f61 4f3d
00000220: 47df f33d 1755 5bbc 4595 4cbe 9766 3a3d
00000230: b8cb ac3c eb9f ecbd 6867 243d 8bbf ddbd
00000240: 6949 07bd b050 5a3e 65c6 1c3d cfc2 053e
00000250: 8952 f83d 224e 773d 2dc1 b1bc 4d9b 213d
00000260: 3519 46bd 69f2 a63d 8c16 bebd 6ad4 89be
00000270: d02a ca3c 42a2 05be fec1 1bbd 198e 9ebc
00000280: c2e2 e5bd 719c 7a3d f18f 3c3d 554a 963b
00000290: 3752 893d 07f7 713d d71a 1abe 838a 873d
000002a0: 8e83 23bd 8c16 3ebe 05e6 8d3d 2e9e 73bd
000002b0: 3a79 72be 0912 18bc a2b6 36bd d76c d9bc
000002c0: 09bb 373c c2e7 86bd 881e d6bd 4836 d4bd
000002d0: 3e1f 1bbe dbef 433d 300b 59bc 0b7a 5cbd
000002e0: 19c2 c0bd 8c16 be3c b607 e73b 0c05 dfbd
000002f0: 6b08 2cbe fe47 fd3d 2dc1 31be 38ba cdbd
00000300: 4543 0dbe 10ab 073d c023 c1bc 933a 30bd
00000310: 3b7e 13bd 5aaa c2bd 2487 babd fba6 f5bc
00000320: 80c6 c13d b8cb ac3c 1380 31bc bd82 393e
00000330: 23d9 79bd 4543 8d3d e213 b6bd 15e8 75bd
00000340: c3c4 48bd e3f5 183d 0ffd 463e f4fc a13e
00000350: 1d97 6a3c f7f4 093e 07fc 12bd 5c17 a83d
00000360: e7ca 423d 4117 03be a8a1 e5bd f004 3abe
00000370: 0d0a 00bd dee7 2bbe a500 5e3e 27d6 823d
00000380: 5b35 c5bd 348e 43bd 269d 3fbe eca4 8d3d
00000390: 1e45 ab3d fd88 58bd c07a 21bd ba38 92bb
000003a0: eca4 0d3d 1d11 09be d84e 3cbe ac47 0ebd
000003b0: dcd1 263e e188 33bd bfef 1ebe 16ed 963e
000003c0: b956 2fbe c906 58be e4d2 dabd c688 8ebc
000003d0: 6fdd 55bd 7068 583d f5de 84bd b740 2a3d
000003e0: 6a7d a9bd 3d94 983d 01b5 e23c ae06 33bd
000003f0: aab7 eabd cd32 e23d 0322 48bd 2ef5 53bc
