tests/data/npy/model.5.conv.bias.npy (npy, 640 bytes, 1 tensors)

array f4 [128]
0	0xbf2c4e6e	-0.67307174
1	0xbf7210e2	-0.9455701
2	0xbdb04f68	-0.086088955
3	0xbf15568c	-0.58335185
4	0x3f7982ce	0.9746522
5	0x3e22013e	0.15820786
6	0xbee4eb46	-0.4471075
7	0x3f64b7e2	0.8934308
8	0xbe02afa0	-0.12762308
9	0xbf1d401c	-0.6142595
10	0x3d324e50	0.043531716
11	0xbf430bc4	-0.7618983
12	0xbfe6efb8	-1.8041906
13	0x3f973115	1.1811854
14	0x3d95dfac	0.07318053
15	0xbecf81d7	-0.40528747
16	0xbee931da	-0.45545846
17	0xbe57fee0	-0.21093321
18	0xbfe159c0	-1.7605515
19	0x3efd8b5b	0.49520382
20	0xbfb0f51d	-1.3824803
21	0xbe3f47bc	-0.18679708
22	0x3f93ca67	1.1546143
23	0xbf692b2d	-0.91081506
24	0xbf1af94b	-0.6053664
25	0x3f1f0d1b	0.6212937
26	0x3f5511b2	0.83230126
27	0xbf2623b4	-0.6489823
28	0x3f286e19	0.65792996
29	0xbf48c16d	-0.78420144
30	0x3f2c3903	0.6727449
31	0xbdd51fc8	-0.104064524
32	0x3e8f361f	0.2797098
33	0xbf700d37	-0.93770164
34	0x3e2cfbc0	0.1689291
35	0xbfaecf52	-1.3657019
36	0xbec6859e	-0.38773817
37	0xbfa68162	-1.3008235
38	0x3e03ba38	0.12864006
39	0x3fa28cba	1.2699196
40	0xbe35189b	-0.17685167
41	0xbfb3973a	-1.4030526
42	0x3f0e5b0c	0.55607677
43	0x3eb07c62	0.34469897
44	0x3f112293	0.5669338
45	0x3e89b1da	0.26893502
46	0xbfa635da	-1.2985184
47	0xc074ba44	-3.8238688
48	0xbc9ac520	-0.018892825
49	0xbfad97b6	-1.3561924
50	0x3e374d72	0.17900637
51	0xbfa7441d	-1.3067662
52	0x3e8ebfdc	0.27880752
53	0xbf54f6b5	-0.83188945
54	0xbf732bd3	-0.94988745
55	0x3f1babb6	0.60808885
56	0x3f7f53c9	0.9973722
57	0x3f3669ad	0.71255
58	0xbee49cb5	-0.44650808
59	0xbf63e006	-0.8901371
60	0xbf8da61b	-1.1066316
61	0xc0063f2b	-2.0976055
62	0xbfdb842a	-1.7149708
63	0xbf881679	-1.0631858
64	0x3edf5a6f	0.43623683
65	0x3fdce21b	1.7256502
66	0x3f66161a	0.89877474
67	0xbdab5930	-0.083666205
68	0x3e4bacba	0.19890109
69	0xbe4e3e50	-0.20140958
70	0xbf8813ff	-1.0631102
71	0x3f2404ee	0.6407002
72	0xbf3b7f4d	-0.7324112
73	0x3f3fa703	0.74864215
74	0xbf2e740c	-0.68145823
75	0xbea0b1e2	-0.31385714
76	0xbec0b986	-0.37641543
77	0xbf11a8a0	-0.56897926
78	0xbd4a5b6c	-0.049403593
79	0x3f6b8b63	0.9200956
80	0xbebde025	-0.3708507
81	0xbea5b23c	-0.32362545
82	0xbf57eacd	-0.8434265
83	0x3f2be668	0.6714845
84	0xbf71bb99	-0.94426876
85	0xbfb6001a	-1.4218781
86	0x3efbd17a	0.49183255
87	0x3faad952	1.3347571
88	0xbf482823	-0.78186244
89	0x3fb3102c	1.398931
90	0xbfdd1643	-1.7272419
91	0x3ec58b5c	0.38582885
92	0x3fccfde7	1.6014985
93	0xbe9297ca	-0.2863143
94	0xbf819626	-1.0123947
95	0x3f94a962	1.1614192
96	0xbed81f00	-0.4221115
97	0xbf7fb518	-0.998857
98	0xbf3d0551	-0.7383624
99	0x3f03d6c0	0.5149956
100	0x3e8fc4ca	0.28079826
101	0xbfdd7d0a	-1.7303784
102	0x3ea099d4	0.31367362
103	0xbf8fe0e6	-1.1240509
104	0x3f9f8cdc	1.2464862
105	0xbf9e3977	-1.2361287
106	0xbf14b1d2	-0.5808383
107	0xbd75d5d0	-0.06001836
108	0x3fd160fa	1.635772
109	0xbf8424a9	-1.0323688
110	0x3f1d0680	0.61338043
111	0x3f99f72f	1.202856
112	0x3f9554af	1.1666468
113	0xbd42dccc	-0.04757385
114	0x3f7d46cc	0.9893615
115	0x3ee01d1e	0.43772215
116	0xbe2cf596	-0.16890559
117	0xc003c311	-2.058781
118	0x3e14d2e8	0.1453358
119	0xbec66d94	-0.38755476
120	0x3d156610	0.036474288
121	0xbebc94a8	-0.36832166
122	0xbf7afacc	-0.98038936
123	0x3f29815f	0.6621303
124	0xbf34e65e	-0.7066401
125	0x3f188952	0.59584534
126	0x3fafc7b4	1.373282
127	0xbfa840b6	-1.3144748
