tests/data/npy/model.18.m.0.cv2.conv.weight.npy (npy, 147584 bytes, 1 tensors)

array f4 [64, 64, 3, 3]
0	0x3cfd139e	0.030893143
1	0x3d1cb043	0.038254034
2	0x3d1dec1b	0.038555246
3	0x3dcef6ed	0.10105691
4	0x3db7fc52	0.08983673
5	0xbc534862	-0.012895675
6	0xbb004fd6	-0.0019578836
7	0x3e221615	0.15828736
8	0x3d26ddfb	0.04073904
9	0x3d900adb	0.070333205
10	0x3cc6a2fa	0.024247635
11	0x3cd20c8a	0.025640745
12	0x3d2ebb7d	0.04265927
13	0x3e46ca75	0.19413169
14	0x3d335be8	0.04378882
15	0x3ddf2863	0.10896375
16	0x3d560f09	0.052260432
17	0xbe4d939a	-0.20075837
18	0xbc2a1b12	-0.010382431
19	0x3d6d09a4	0.057870522
20	0xbce08bb6	-0.02741037
21	0x3acc7f3d	0.0015601885
22	0x3da68f04	0.08132747
23	0x3c0d932a	0.008641044
24	0x3d97e85d	0.07417367
25	0x3c5e1406	0.013554579
26	0x3d95d360	0.07315707
27	0x3c59c291	0.013291017
28	0xbdbb8860	-0.09156871
29	0xbdac6b47	-0.08418899
30	0x3dee1e01	0.116268165
31	0xbde30367	-0.11084633
32	0xbd9181eb	-0.07104858
33	0xbc7b6155	-0.01534303
34	0x3d2c92c3	0.04213215
35	0x3b3b60e5	0.002859169
36	0x3d90e3ff	0.07074737
37	0xbe10a8c7	-0.14126883
38	0x3d3448ca	0.04401473
39	0x3c289044	0.010288302
40	0x3ec6f1f0	0.3885646
41	0x3edb4d5f	0.42832467
42	0xbdf1f904	-0.11815074
43	0x3eea91f3	0.45814475
44	0x3f18728c	0.59549785
45	0xbd44c936	-0.048043452
46	0x3d9f76e9	0.07786352
47	0x3b867b0f	0.004104025
48	0xbc813cb8	-0.015776023
49	0x3d09b827	0.033622887
50	0xbd355d27	-0.04427829
51	0x3da351ed	0.079746105
52	0x3d5ad6ee	0.05342763
53	0xbcbe9dfd	-0.023268694
54	0x3cdc61bd	0.026902074
55	0x3c617899	0.013761663
56	0xbd519619	-0.051168535
57	0xbd7ec5e8	-0.062200457
58	0x3ddc12c7	0.10745769
59	0xbdb2200f	-0.08697521
60	0xbda4dcbb	-0.080499135
61	0x3e5799d7	0.21054779
62	0xbdcd6c1f	-0.10030388
63	0x3dd549a1	0.10414434
64	0xbc9ed8fd	-0.019390577
65	0xbd677c57	-0.056515064
66	0x3df6e865	0.120560445
67	0xbd6c1cc1	-0.05764461
68	0xbd963614	-0.07334533
69	0xbed3bed3	-0.41356525
70	0x3e2bf4d6	0.16792616
71	0xbd1a73cb	-0.037708085
72	0xbccea7f7	-0.025226576
73	0xbe4ef6ed	-0.20211382
74	0xbd9cff39	-0.07665867
75	0xbc47ded2	-0.012199121
76	0xbe78243d	-0.24232574
77	0x3b5c8938	0.0033651125
78	0x3e1521b6	0.14563641
79	0x3df3fa44	0.11912969
80	0xbdc33e67	-0.09533387
81	0xbda5532c	-0.080725044
82	0xbe648e35	-0.22319873
83	0xbe8df5de	-0.27726644
84	0xbcc2c7f6	-0.02377699
85	0xbefb6155	-0.49097696
86	0xbee57b17	-0.44820473
87	0xbe9e628c	-0.3093456
88	0x3e7b125f	0.24518727
89	0x3f891a3a	1.0711129
90	0x3d661903	0.056176197
91	0x3d1f0078	0.038818806
92	0xbd45b618	-0.04826936
93	0x3bba9b7e	0.0056948056
94	0x3ddad6ee	0.10685526
95	0xbc7c4e37	-0.015399507
96	0xbc409f3c	-0.011756714
97	0x3cac92c3	0.021066075
98	0xbd1c750a	-0.038197555
99	0xbd9146b3	-0.07093563
100	0xbea03c50	-0.31296015
101	0xbe217829	-0.15768494
102	0xbeb6c07a	-0.35693723
103	0xbf7c4e37	-0.98556846
104	0xbf0ea787	-0.55724376
105	0xbec6f1f0	-0.3885646
106	0xbed63684	-0.41838467
107	0x3e6f8154	0.23389179
108	0x3aebcdcb	0.0017990408
109	0x3d85dd23	0.06536319
110	0xbbc740e6	-0.0060807345
111	0xbd60643b	-0.054783087
112	0xbda97d26	-0.08275823
113	0x3a7a9bee	0.00095599785
114	0xbcc91aaa	-0.024548847
115	0xbc175e2e	-0.009238763
116	0x3de1a014	0.110168606
117	0xbd9c9c85	-0.07647041
118	0xbd1e1396	-0.038592897
119	0xbd433e67	-0.047666933
120	0xbd36c07a	-0.044617154
121	0xbd297d26	-0.041379116
122	0xbd476861	-0.048683528
123	0x3dd4d330	0.10391843
124	0x3d0a5613	0.033773493
125	0xbdc87cbe	-0.09789418
126	0xbd3bafdb	-0.045822006
127	0x3ca12933	0.019672966
128	0xbdb0e437	-0.086372785
129	0xbc0c6b10	-0.008570448
130	0x3dd3e64e	0.103466615
131	0xbdba250d	-0.09089098
132	0xbd0000e0	-0.031250834
133	0x3dcc7f3d	0.09985206
134	0xbd24b540	-0.040211916
135	0x3ceba650	0.028765827
136	0xbc8854d3	-0.01664201
137	0xbdf70fe0	-0.12063575
138	0x3ba868c9	0.0051394445
139	0xbd8e6c4f	-0.06954252
140	0xbdc09f3c	-0.094053715
141	0x3ca48dc5	0.020087132
142	0xbd35fb13	-0.044428896
143	0xbe1cb043	-0.15301614
144	0xbd9b11b7	-0.07571738
145	0x3d4bb9d6	0.049737774
146	0x3b63c8ce	0.003475714
147	0xbcc8cbb4	-0.024511196
148	0xbbcc57c2	-0.0062360475
149	0xbd4c08cc	-0.049813077
150	0x3d75ac8d	0.05997901
151	0xbe4b6ae0	-0.19864988
152	0xbd735c58	-0.059414238
153	0x3d132077	0.035919633
154	0x3d8941b5	0.06701986
155	0xbdbb11ef	-0.0913428
156	0x3c858e2d	0.016303146
157	0xbdc077c1	-0.09397841
158	0xbdc1db14	-0.09465614
159	0xbc5c8938	-0.01346045
160	0xbdadf616	-0.08494203
161	0xbd80b28a	-0.062840536
162	0xbd027890	-0.03185326
163	0xbd4de290	-0.050264895
164	0x3cb535ac	0.02212032
165	0x3c3f6364	0.011681411
166	0x3da4b540	0.08042383
167	0xbcd25b80	-0.025678396
168	0x3cd7725c	0.026299648
169	0x3d170f38	0.036879748
170	0xbe15e71e	-0.14638945
171	0x3d76c0ea	0.06024257
172	0x3bb4bf3b	0.0055159605
173	0x3d87053e	0.06592797
174	0xbe565dff	-0.20934294
175	0xbab535ac	-0.00138252
176	0x3d162256	0.03665384
177	0xbcd63684	-0.026149042
178	0xbc8f31b6	-0.017479759
179	0xbdb35be8	-0.08757764
180	0xbd692ea0	-0.05692923
181	0xbe52f96c	-0.2060296
182	0x3d338363	0.043826472
183	0xbd7fb2ca	-0.062426366
184	0xbdc2ef71	-0.09518326
185	0xbd9f76e9	-0.07786352
186	0x3e326f06	0.17425165
187	0xbdbaea74	-0.0912675
188	0xbeb89a3f	-0.3605518
189	0xbd257aa7	-0.040400174
190	0xbdc316ec	-0.095258564
191	0xbd14bf03	-0.036314975
192	0xbc3d132e	-0.011540217
193	0xbd999aa6	-0.075002
194	0xbc23efd9	-0.010005915
195	0x3dd40dc9	0.10354192
196	0xbc48064d	-0.0122085335
197	0x3d7fb2ca	0.062426366
198	0x3a8fcfa2	0.0010971914
199	0x3e0c085c	0.13675064
200	0x3daf80e4	0.08569506
201	0xbe217829	-0.15768494
202	0x3e7ac369	0.24488606
203	0x3e1bafa3	0.15203719
204	0x3e3c7542	0.18404105
205	0xbf0b2f37	-0.5436892
206	0xbf1d4e2f	-0.61447424
207	0xbcae6c87	-0.021291984
208	0xbcc403cf	-0.023927597
209	0x3cb4214f	0.021988539
210	0xbc8000e0	-0.015625417
211	0xbd0d7f6d	-0.03454535
212	0x3df35c58	0.118828475
213	0x3b3448ca	0.0027509206
214	0xbd960e99	-0.07327003
215	0xbd726f75	-0.059188325
216	0x3cf3fa44	0.029782422
217	0xbda906b5	-0.082532324
218	0x3d8c1c19	0.06841297
219	0x3ded8015	0.11596695
220	0x3b5b74db	0.00334864
221	0xbd930cba	-0.07180162
222	0x3cdb25e4	0.026751466
223	0xbd5b25e4	-0.053502932
224	0xbe7f8b4f	-0.24955486
225	0xbcf35c58	-0.029707119
226	0xbdd00b4b	-0.10158404
227	0xbdfd6294	-0.12372318
228	0xbd65ca0d	-0.056100894
229	0xbe4ef6ed	-0.20211382
230	0xbe868ecd	-0.26280823
231	0xbd82c786	-0.06385712
232	0xbdc2ef71	-0.09518326
233	0xbd13be63	-0.03607024
234	0x3dbb8860	0.09156871
235	0x3d81daa4	0.063405305
236	0x3daae079	0.08343596
237	0xbd3b60e5	-0.045746703
238	0xbc594c20	-0.0132627785
239	0xbe1a4c50	-0.15068173
240	0xbe1d3a71	-0.15354325
241	0x3ec6050e	0.3867573
242	0xbda4dcbb	-0.080499135
243	0x3d3bafdb	0.045822006
244	0xbd3a9b7e	-0.045558445
245	0x3d48a439	0.04898474
246	0x3ce7cb4d	0.028295184
247	0x3da48dc5	0.08034853
248	0xbdab07f4	-0.08351126
249	0x3c6c9332	0.014439391
250	0x3e3cebb3	0.18449287
251	0x3e2ae079	0.16687192
252	0x3d12d181	0.03584433
253	0x3d1d75aa	0.03844229
254	0xbd106d8e	-0.03526073
255	0x3d63525d	0.05549847
